…
I0315 00:30:22.875360 2663039808 net.cpp:294] The NetState phase (0) differed from the phase (1) specified by a rule in layer accuracy
I0315 00:30:22.875368 2663039808 net.cpp:51] Initializing net from parameters: 
name: "CaffeNet"
state {
  phase: TRAIN
  level: 0
  stage: ""
}
layer {
  name: "data"
  type: "Data"
  top: "data"
  top: "label"
  include {
    phase: TRAIN
  }
  transform_param {
    mirror: true
    crop_size: 224
    mean_file: "../imagenet_mean.binaryproto"
  }
  data_param {
    source: "../ilsvrc12_train_lmdb"
    batch_size: 8
    backend: LMDB
  }
}
layer {
  name: "conv1"
  type: "Convolution"
  bottom: "data"
  top: "conv1"
  param {
    lr_mult: 1
    decay_mult: 1
  }
  param {
    lr_mult: 2
    decay_mult: 0
  }
  convolution_param {
    num_output: 96
    kernel_size: 11
    stride: 4
    weight_filler {
      type: "gaussian"
      std: 0.01
    }
    bias_filler {
      type: "constant"
      value: 0
    }
  }
}
layer {
  name: "relu1"
  type: "ReLU"
  bottom: "conv1"
  top: "conv1"
}
layer {
  name: "pool1"
  type: "Pooling"
  bottom: "conv1"
  top: "pool1"
  pooling_param {
    pool: MAX
    kernel_size: 3
    stride: 2
  }
}
layer {
  name: "norm1"
  type: "LRN"
  bottom: "pool1"
  top: "norm1"
  lrn_param {
    local_size: 5
    alpha: 0.0001
    beta: 0.75
  }
}
layer {
  name: "conv2"
  type: "Convolution"
  bottom: "norm1"
  top: "conv2"
  param {
    lr_mult: 1
    decay_mult: 1
  }
  param {
    lr_mult: 2
    decay_mult: 0
  }
  convolution_param {
    num_output: 256
    pad: 2
    kernel_size: 5
    group: 2
    weight_filler {
      type: "gaussian"
      std: 0.01
    }
    bias_filler {
      type: "constant"
      value: 1
    }
  }
}
layer {
  name: "relu2"
  type: "ReLU"
  bottom: "conv2"
  top: "conv2"
}
layer {
  name: "pool2"
  type: "Pooling"
  bottom: "conv2"
  top: "pool2"
  pooling_param {
    pool: MAX
    kernel_size: 3
    stride: 2
  }
}
layer {
  name: "norm2"
  type: "LRN"
  bottom: "pool2"
  top: "norm2"
  lrn_param {
    local_size: 5
    alpha: 0.0001
    beta: 0.75
  }
}
layer {
  name: "conv3"
  type: "Convolution"
  bottom: "norm2"
  top: "conv3"
  param {
    lr_mult: 1
    decay_mult: 1
  }
  param {
    lr_mult: 2
    decay_mult: 0
  }
  convolution_param {
    num_output: 384
    pad: 1
    kernel_size: 3
    weight_filler {
      type: "gaussian"
      std: 0.01
    }
    bias_filler {
      type: "constant"
      value: 0
    }
  }
}
layer {
  name: "relu3"
  type: "ReLU"
  bottom: "conv3"
  top: "conv3"
}
layer {
  name: "conv4"
  type: "Convolution"
  bottom: "conv3"
  top: "conv4"
  param {
    lr_mult: 1
    decay_mult: 1
  }
  param {
    lr_mult: 2
    decay_mult: 0
  }
  convolution_param {
    num_output: 384
    pad: 1
    kernel_size: 3
    group: 2
    weight_filler {
      type: "gaussian"
      std: 0.01
    }
    bias_filler {
      type: "constant"
      value: 1
    }
  }
}
layer {
  name: "relu4"
  type: "ReLU"
  bottom: "conv4"
  top: "conv4"
}
layer {
  name: "conv5"
  type: "Convolution"
  bottom: "conv4"
  top: "conv5"
  param {
    lr_mult: 1
    decay_mult: 1
  }
  param {
    lr_mult: 2
    decay_mult: 0
  }
  convolution_param {
    num_output: 256
    pad: 1
    kernel_size: 3
    group: 2
    weight_filler {
      type: "gaussian"
      std: 0.01
    }
    bias_filler {
      type: "constant"
      value: 1
    }
  }
}
layer {
  name: "relu5"
  type: "ReLU"
  bottom: "conv5"
  top: "conv5"
}
layer {
  name: "pool5"
  type: "Pooling"
  bottom: "conv5"
  top: "pool5"
  pooling_param {
    pool: MAX
    kernel_size: 3
    stride: 2
  }
}
layer {
  name: "fc6"
  type: "InnerProduct"
  bottom: "pool5"
  top: "fc6"
  param {
    lr_mult: 1
    decay_mult: 1
  }
  param {
    lr_mult: 2
    decay_mult: 0
  }
  inner_product_param {
    num_output: 4096
    weight_filler {
      type: "gaussian"
      std: 0.005
    }
    bias_filler {
      type: "constant"
      value: 1
    }
  }
}
layer {
  name: "relu6"
  type: "ReLU"
  bottom: "fc6"
  top: "fc6"
}
layer {
  name: "drop6"
  type: "Dropout"
  bottom: "fc6"
  top: "fc6"
  dropout_param {
    dropout_ratio: 0.6
  }
}
layer {
  name: "fc7"
  type: "InnerProduct"
  bottom: "fc6"
  top: "fc7"
  param {
    lr_mult: 1
    decay_mult: 1
  }
  param {
    lr_mult: 2
    decay_mult: 0
  }
  inner_product_param {
    num_output: 4096
    weight_filler {
      type: "gaussian"
      std: 0.005
    }
    bias_filler {
      type: "constant"
      value: 1
    }
  }
}
layer {
  name: "relu7"
  type: "ReLU"
  bottom: "fc7"
  top: "fc7"
}
layer {
  name: "drop7"
  type: "Dropout"
  bottom: "fc7"
  top: "fc7"
  dropout_param {
    dropout_ratio: 0.5
  }
}
layer {
  name: "fc8"
  type: "InnerProduct"
  bottom: "fc7"
  top: "fc8"
  param {
    lr_mult: 1
    decay_mult: 1
  }
  param {
    lr_mult: 2
    decay_mult: 0
  }
  inner_product_param {
    num_output: 1000
    weight_filler {
      type: "gaussian"
      std: 0.01
    }
    bias_filler {
      type: "constant"
      value: 0
    }
  }
}
layer {
  name: "loss"
  type: "SoftmaxWithLoss"
  bottom: "fc8"
  bottom: "label"
  top: "loss"
}
I0315 00:30:22.887135 2663039808 layer_factory.hpp:77] Creating layer data
I0315 00:30:22.887445 2663039808 db_lmdb.cpp:35] Opened lmdb ../ilsvrc12_train_lmdb
I0315 00:30:22.887536 2663039808 net.cpp:84] Creating Layer data
I0315 00:30:22.887548 2663039808 net.cpp:380] data -> data
I0315 00:30:22.887569 2663039808 net.cpp:380] data -> label
I0315 00:30:22.887578 2663039808 data_transformer.cpp:25] Loading mean file from: ../imagenet_mean.binaryproto
I0315 00:30:22.903060 2663039808 data_layer.cpp:45] output data size: 8,3,224,224
I0315 00:30:22.912492 2663039808 net.cpp:122] Setting up data
I0315 00:30:22.912528 2663039808 net.cpp:129] Top shape: 8 3 224 224 (1204224)
I0315 00:30:22.912537 2663039808 net.cpp:129] Top shape: 8 (8)
I0315 00:30:22.912544 2663039808 net.cpp:137] Memory required for data: 4816928
I0315 00:30:22.912554 2663039808 layer_factory.hpp:77] Creating layer conv1
I0315 00:30:22.912573 2663039808 net.cpp:84] Creating Layer conv1
I0315 00:30:22.912581 2663039808 net.cpp:406] conv1 <- data
I0315 00:30:22.912590 2663039808 net.cpp:380] conv1 -> conv1
I0315 00:30:22.913208 2663039808 net.cpp:122] Setting up conv1
I0315 00:30:22.913223 2663039808 net.cpp:129] Top shape: 8 96 54 54 (2239488)
I0315 00:30:22.913231 2663039808 net.cpp:137] Memory required for data: 13774880
I0315 00:30:22.913245 2663039808 layer_factory.hpp:77] Creating layer relu1
I0315 00:30:22.913259 2663039808 net.cpp:84] Creating Layer relu1
I0315 00:30:22.913265 2663039808 net.cpp:406] relu1 <- conv1
I0315 00:30:22.913274 2663039808 net.cpp:367] relu1 -> conv1 (in-place)
I0315 00:30:22.913281 2663039808 net.cpp:122] Setting up relu1
I0315 00:30:22.913287 2663039808 net.cpp:129] Top shape: 8 96 54 54 (2239488)
I0315 00:30:22.913295 2663039808 net.cpp:137] Memory required for data: 22732832
I0315 00:30:22.913300 2663039808 layer_factory.hpp:77] Creating layer pool1
I0315 00:30:22.913309 2663039808 net.cpp:84] Creating Layer pool1
I0315 00:30:22.913316 2663039808 net.cpp:406] pool1 <- conv1
I0315 00:30:22.913323 2663039808 net.cpp:380] pool1 -> pool1
I0315 00:30:22.913334 2663039808 net.cpp:122] Setting up pool1
I0315 00:30:22.915029 2663039808 net.cpp:129] Top shape: 8 96 27 27 (559872)
I0315 00:30:22.915043 2663039808 net.cpp:137] Memory required for data: 24972320
I0315 00:30:22.915050 2663039808 layer_factory.hpp:77] Creating layer norm1
I0315 00:30:22.915061 2663039808 net.cpp:84] Creating Layer norm1
I0315 00:30:22.915074 2663039808 net.cpp:406] norm1 <- pool1
I0315 00:30:22.915082 2663039808 net.cpp:380] norm1 -> norm1
I0315 00:30:22.915098 2663039808 net.cpp:122] Setting up norm1
I0315 00:30:22.915105 2663039808 net.cpp:129] Top shape: 8 96 27 27 (559872)
I0315 00:30:22.915112 2663039808 net.cpp:137] Memory required for data: 27211808
I0315 00:30:22.915118 2663039808 layer_factory.hpp:77] Creating layer conv2
I0315 00:30:22.915128 2663039808 net.cpp:84] Creating Layer conv2
I0315 00:30:22.915134 2663039808 net.cpp:406] conv2 <- norm1
I0315 00:30:22.915143 2663039808 net.cpp:380] conv2 -> conv2
I0315 00:30:22.922943 2663039808 net.cpp:122] Setting up conv2
I0315 00:30:22.922966 2663039808 net.cpp:129] Top shape: 8 256 27 27 (1492992)
I0315 00:30:22.922974 2663039808 net.cpp:137] Memory required for data: 33183776
I0315 00:30:22.922986 2663039808 layer_factory.hpp:77] Creating layer relu2
I0315 00:30:22.922996 2663039808 net.cpp:84] Creating Layer relu2
I0315 00:30:22.923002 2663039808 net.cpp:406] relu2 <- conv2
I0315 00:30:22.923009 2663039808 net.cpp:367] relu2 -> conv2 (in-place)
I0315 00:30:22.923017 2663039808 net.cpp:122] Setting up relu2
I0315 00:30:22.923022 2663039808 net.cpp:129] Top shape: 8 256 27 27 (1492992)
I0315 00:30:22.923027 2663039808 net.cpp:137] Memory required for data: 39155744
I0315 00:30:22.923032 2663039808 layer_factory.hpp:77] Creating layer pool2
I0315 00:30:22.923039 2663039808 net.cpp:84] Creating Layer pool2
I0315 00:30:22.923044 2663039808 net.cpp:406] pool2 <- conv2
I0315 00:30:22.923050 2663039808 net.cpp:380] pool2 -> pool2
I0315 00:30:22.923060 2663039808 net.cpp:122] Setting up pool2
I0315 00:30:22.923210 2663039808 net.cpp:129] Top shape: 8 256 13 13 (346112)
I0315 00:30:22.923221 2663039808 net.cpp:137] Memory required for data: 40540192
I0315 00:30:22.923228 2663039808 layer_factory.hpp:77] Creating layer norm2
I0315 00:30:22.923236 2663039808 net.cpp:84] Creating Layer norm2
I0315 00:30:22.923243 2663039808 net.cpp:406] norm2 <- pool2
I0315 00:30:22.923249 2663039808 net.cpp:380] norm2 -> norm2
I0315 00:30:22.923260 2663039808 net.cpp:122] Setting up norm2
I0315 00:30:22.923265 2663039808 net.cpp:129] Top shape: 8 256 13 13 (346112)
I0315 00:30:22.923272 2663039808 net.cpp:137] Memory required for data: 41924640
I0315 00:30:22.923276 2663039808 layer_factory.hpp:77] Creating layer conv3
I0315 00:30:22.923286 2663039808 net.cpp:84] Creating Layer conv3
I0315 00:30:22.923292 2663039808 net.cpp:406] conv3 <- norm2
I0315 00:30:22.923300 2663039808 net.cpp:380] conv3 -> conv3
I0315 00:30:22.934922 2663039808 net.cpp:122] Setting up conv3
I0315 00:30:22.934944 2663039808 net.cpp:129] Top shape: 8 384 13 13 (519168)
I0315 00:30:22.934953 2663039808 net.cpp:137] Memory required for data: 44001312
I0315 00:30:22.934963 2663039808 layer_factory.hpp:77] Creating layer relu3
I0315 00:30:22.934973 2663039808 net.cpp:84] Creating Layer relu3
I0315 00:30:22.934979 2663039808 net.cpp:406] relu3 <- conv3
I0315 00:30:22.934986 2663039808 net.cpp:367] relu3 -> conv3 (in-place)
I0315 00:30:22.934994 2663039808 net.cpp:122] Setting up relu3
I0315 00:30:22.935000 2663039808 net.cpp:129] Top shape: 8 384 13 13 (519168)
I0315 00:30:22.935008 2663039808 net.cpp:137] Memory required for data: 46077984
I0315 00:30:22.935012 2663039808 layer_factory.hpp:77] Creating layer conv4
I0315 00:30:22.935022 2663039808 net.cpp:84] Creating Layer conv4
I0315 00:30:22.935029 2663039808 net.cpp:406] conv4 <- conv3
I0315 00:30:22.935035 2663039808 net.cpp:380] conv4 -> conv4
I0315 00:30:22.943202 2663039808 net.cpp:122] Setting up conv4
I0315 00:30:22.943228 2663039808 net.cpp:129] Top shape: 8 384 13 13 (519168)
I0315 00:30:22.943236 2663039808 net.cpp:137] Memory required for data: 48154656
I0315 00:30:22.943244 2663039808 layer_factory.hpp:77] Creating layer relu4
I0315 00:30:22.943254 2663039808 net.cpp:84] Creating Layer relu4
I0315 00:30:22.943260 2663039808 net.cpp:406] relu4 <- conv4
I0315 00:30:22.943267 2663039808 net.cpp:367] relu4 -> conv4 (in-place)
I0315 00:30:22.943284 2663039808 net.cpp:122] Setting up relu4
I0315 00:30:22.943289 2663039808 net.cpp:129] Top shape: 8 384 13 13 (519168)
I0315 00:30:22.943295 2663039808 net.cpp:137] Memory required for data: 50231328
I0315 00:30:22.943301 2663039808 layer_factory.hpp:77] Creating layer conv5
I0315 00:30:22.943311 2663039808 net.cpp:84] Creating Layer conv5
I0315 00:30:22.943316 2663039808 net.cpp:406] conv5 <- conv4
I0315 00:30:22.943323 2663039808 net.cpp:380] conv5 -> conv5
I0315 00:30:22.948388 2663039808 net.cpp:122] Setting up conv5
I0315 00:30:22.948410 2663039808 net.cpp:129] Top shape: 8 256 13 13 (346112)
I0315 00:30:22.948418 2663039808 net.cpp:137] Memory required for data: 51615776
I0315 00:30:22.948427 2663039808 layer_factory.hpp:77] Creating layer relu5
I0315 00:30:22.948436 2663039808 net.cpp:84] Creating Layer relu5
I0315 00:30:22.948439 2663039808 net.cpp:406] relu5 <- conv5
I0315 00:30:22.948444 2663039808 net.cpp:367] relu5 -> conv5 (in-place)
I0315 00:30:22.948451 2663039808 net.cpp:122] Setting up relu5
I0315 00:30:22.948453 2663039808 net.cpp:129] Top shape: 8 256 13 13 (346112)
I0315 00:30:22.948457 2663039808 net.cpp:137] Memory required for data: 53000224
I0315 00:30:22.948460 2663039808 layer_factory.hpp:77] Creating layer pool5
I0315 00:30:22.948465 2663039808 net.cpp:84] Creating Layer pool5
I0315 00:30:22.948468 2663039808 net.cpp:406] pool5 <- conv5
I0315 00:30:22.948472 2663039808 net.cpp:380] pool5 -> pool5
I0315 00:30:22.948479 2663039808 net.cpp:122] Setting up pool5
I0315 00:30:22.948482 2663039808 net.cpp:129] Top shape: 8 256 6 6 (73728)
I0315 00:30:22.948487 2663039808 net.cpp:137] Memory required for data: 53295136
I0315 00:30:22.948489 2663039808 layer_factory.hpp:77] Creating layer fc6
I0315 00:30:22.948496 2663039808 net.cpp:84] Creating Layer fc6
I0315 00:30:22.948500 2663039808 net.cpp:406] fc6 <- pool5
I0315 00:30:22.948504 2663039808 net.cpp:380] fc6 -> fc6
I0315 00:30:23.416774 2663039808 net.cpp:122] Setting up fc6
I0315 00:30:23.416806 2663039808 net.cpp:129] Top shape: 8 4096 (32768)
I0315 00:30:23.416815 2663039808 net.cpp:137] Memory required for data: 53426208
I0315 00:30:23.416823 2663039808 layer_factory.hpp:77] Creating layer relu6
I0315 00:30:23.416836 2663039808 net.cpp:84] Creating Layer relu6
I0315 00:30:23.416841 2663039808 net.cpp:406] relu6 <- fc6
I0315 00:30:23.416849 2663039808 net.cpp:367] relu6 -> fc6 (in-place)
I0315 00:30:23.416857 2663039808 net.cpp:122] Setting up relu6
I0315 00:30:23.416862 2663039808 net.cpp:129] Top shape: 8 4096 (32768)
I0315 00:30:23.416867 2663039808 net.cpp:137] Memory required for data: 53557280
I0315 00:30:23.416884 2663039808 layer_factory.hpp:77] Creating layer drop6
I0315 00:30:23.416909 2663039808 net.cpp:84] Creating Layer drop6
I0315 00:30:23.416918 2663039808 net.cpp:406] drop6 <- fc6
I0315 00:30:23.416924 2663039808 net.cpp:367] drop6 -> fc6 (in-place)
I0315 00:30:23.416937 2663039808 net.cpp:122] Setting up drop6
I0315 00:30:23.416944 2663039808 net.cpp:129] Top shape: 8 4096 (32768)
I0315 00:30:23.416950 2663039808 net.cpp:137] Memory required for data: 53688352
I0315 00:30:23.416954 2663039808 layer_factory.hpp:77] Creating layer fc7
I0315 00:30:23.416960 2663039808 net.cpp:84] Creating Layer fc7
I0315 00:30:23.416963 2663039808 net.cpp:406] fc7 <- fc6
I0315 00:30:23.416970 2663039808 net.cpp:380] fc7 -> fc7
I0315 00:30:23.628274 2663039808 net.cpp:122] Setting up fc7
I0315 00:30:23.628301 2663039808 net.cpp:129] Top shape: 8 4096 (32768)
I0315 00:30:23.628309 2663039808 net.cpp:137] Memory required for data: 53819424
I0315 00:30:23.628315 2663039808 layer_factory.hpp:77] Creating layer relu7
I0315 00:30:23.628324 2663039808 net.cpp:84] Creating Layer relu7
I0315 00:30:23.628329 2663039808 net.cpp:406] relu7 <- fc7
I0315 00:30:23.628334 2663039808 net.cpp:367] relu7 -> fc7 (in-place)
I0315 00:30:23.628340 2663039808 net.cpp:122] Setting up relu7
I0315 00:30:23.628343 2663039808 net.cpp:129] Top shape: 8 4096 (32768)
I0315 00:30:23.628347 2663039808 net.cpp:137] Memory required for data: 53950496
I0315 00:30:23.628351 2663039808 layer_factory.hpp:77] Creating layer drop7
I0315 00:30:23.628360 2663039808 net.cpp:84] Creating Layer drop7
I0315 00:30:23.628363 2663039808 net.cpp:406] drop7 <- fc7
I0315 00:30:23.628368 2663039808 net.cpp:367] drop7 -> fc7 (in-place)
I0315 00:30:23.628374 2663039808 net.cpp:122] Setting up drop7
I0315 00:30:23.628378 2663039808 net.cpp:129] Top shape: 8 4096 (32768)
I0315 00:30:23.628383 2663039808 net.cpp:137] Memory required for data: 54081568
I0315 00:30:23.628386 2663039808 layer_factory.hpp:77] Creating layer fc8
I0315 00:30:23.628397 2663039808 net.cpp:84] Creating Layer fc8
I0315 00:30:23.628401 2663039808 net.cpp:406] fc8 <- fc7
I0315 00:30:23.628407 2663039808 net.cpp:380] fc8 -> fc8
I0315 00:30:23.686156 2663039808 net.cpp:122] Setting up fc8
I0315 00:30:23.686188 2663039808 net.cpp:129] Top shape: 8 1000 (8000)
I0315 00:30:23.686197 2663039808 net.cpp:137] Memory required for data: 54113568
I0315 00:30:23.686205 2663039808 layer_factory.hpp:77] Creating layer loss
I0315 00:30:23.686223 2663039808 net.cpp:84] Creating Layer loss
I0315 00:30:23.686229 2663039808 net.cpp:406] loss <- fc8
I0315 00:30:23.686234 2663039808 net.cpp:406] loss <- label
I0315 00:30:23.686241 2663039808 net.cpp:380] loss -> loss
…
I0315 00:30:23.686995 2663039808 solver.cpp:190] Creating test net (#0) specified by net file: models/bvlc_reference_caffenet/train_val.prototxt
I0315 00:30:23.687034 2663039808 net.cpp:294] The NetState phase (1) differed from the phase (0) specified by a rule in layer data
I0315 00:30:23.687057 2663039808 net.cpp:51] Initializing net from parameters: 
name: "CaffeNet"
state {
  phase: TEST
}
layer {
  name: "data"
  type: "Data"
  top: "data"
  top: "label"
  include {
    phase: TEST
  }
  transform_param {
    mirror: false
    crop_size: 224
    mean_file: "../imagenet_mean.binaryproto"
  }
  data_param {
    source: "../ilsvrc12_val_lmdb"
    batch_size: 4
    backend: LMDB
  }
}
layer {
  name: "conv1"
  type: "Convolution"
  bottom: "data"
  top: "conv1"
  param {
    lr_mult: 1
    decay_mult: 1
  }
  param {
    lr_mult: 2
    decay_mult: 0
  }
  convolution_param {
    num_output: 96
    kernel_size: 11
    stride: 4
    weight_filler {
      type: "gaussian"
      std: 0.01
    }
    bias_filler {
      type: "constant"
      value: 0
    }
  }
}
layer {
  name: "relu1"
  type: "ReLU"
  bottom: "conv1"
  top: "conv1"
}
layer {
  name: "pool1"
  type: "Pooling"
  bottom: "conv1"
  top: "pool1"
  pooling_param {
    pool: MAX
    kernel_size: 3
    stride: 2
  }
}
layer {
  name: "norm1"
  type: "LRN"
  bottom: "pool1"
  top: "norm1"
  lrn_param {
    local_size: 5
    alpha: 0.0001
    beta: 0.75
  }
}
layer {
  name: "conv2"
  type: "Convolution"
  bottom: "norm1"
  top: "conv2"
  param {
    lr_mult: 1
    decay_mult: 1
  }
  param {
    lr_mult: 2
    decay_mult: 0
  }
  convolution_param {
    num_output: 256
    pad: 2
    kernel_size: 5
    group: 2
    weight_filler {
      type: "gaussian"
      std: 0.01
    }
    bias_filler {
      type: "constant"
      value: 1
    }
  }
}
layer {
  name: "relu2"
  type: "ReLU"
  bottom: "conv2"
  top: "conv2"
}
layer {
  name: "pool2"
  type: "Pooling"
  bottom: "conv2"
  top: "pool2"
  pooling_param {
    pool: MAX
    kernel_size: 3
    stride: 2
  }
}
layer {
  name: "norm2"
  type: "LRN"
  bottom: "pool2"
  top: "norm2"
  lrn_param {
    local_size: 5
    alpha: 0.0001
    beta: 0.75
  }
}
layer {
  name: "conv3"
  type: "Convolution"
  bottom: "norm2"
  top: "conv3"
  param {
    lr_mult: 1
    decay_mult: 1
  }
  param {
    lr_mult: 2
    decay_mult: 0
  }
  convolution_param {
    num_output: 384
    pad: 1
    kernel_size: 3
    weight_filler {
      type: "gaussian"
      std: 0.01
    }
    bias_filler {
      type: "constant"
      value: 0
    }
  }
}
layer {
  name: "relu3"
  type: "ReLU"
  bottom: "conv3"
  top: "conv3"
}
layer {
  name: "conv4"
  type: "Convolution"
  bottom: "conv3"
  top: "conv4"
  param {
    lr_mult: 1
    decay_mult: 1
  }
  param {
    lr_mult: 2
    decay_mult: 0
  }
  convolution_param {
    num_output: 384
    pad: 1
    kernel_size: 3
    group: 2
    weight_filler {
      type: "gaussian"
      std: 0.01
    }
    bias_filler {
      type: "constant"
      value: 1
    }
  }
}
layer {
  name: "relu4"
  type: "ReLU"
  bottom: "conv4"
  top: "conv4"
}
layer {
  name: "conv5"
  type: "Convolution"
  bottom: "conv4"
  top: "conv5"
  param {
    lr_mult: 1
    decay_mult: 1
  }
  param {
    lr_mult: 2
    decay_mult: 0
  }
  convolution_param {
    num_output: 256
    pad: 1
    kernel_size: 3
    group: 2
    weight_filler {
      type: "gaussian"
      std: 0.01
    }
    bias_filler {
      type: "constant"
      value: 1
    }
  }
}
layer {
  name: "relu5"
  type: "ReLU"
  bottom: "conv5"
  top: "conv5"
}
layer {
  name: "pool5"
  type: "Pooling"
  bottom: "conv5"
  top: "pool5"
  pooling_param {
    pool: MAX
    kernel_size: 3
    stride: 2
  }
}
layer {
  name: "fc6"
  type: "InnerProduct"
  bottom: "pool5"
  top: "fc6"
  param {
    lr_mult: 1
    decay_mult: 1
  }
  param {
    lr_mult: 2
    decay_mult: 0
  }
  inner_product_param {
    num_output: 4096
    weight_filler {
      type: "gaussian"
      std: 0.005
    }
    bias_filler {
      type: "constant"
      value: 1
    }
  }
}
layer {
  name: "relu6"
  type: "ReLU"
  bottom: "fc6"
  top: "fc6"
}
layer {
  name: "drop6"
  type: "Dropout"
  bottom: "fc6"
  top: "fc6"
  dropout_param {
    dropout_ratio: 0.6
  }
}
layer {
  name: "fc7"
  type: "InnerProduct"
  bottom: "fc6"
  top: "fc7"
  param {
    lr_mult: 1
    decay_mult: 1
  }
  param {
    lr_mult: 2
    decay_mult: 0
  }
  inner_product_param {
    num_output: 4096
    weight_filler {
      type: "gaussian"
      std: 0.005
    }
    bias_filler {
      type: "constant"
      value: 1
    }
  }
}
layer {
  name: "relu7"
  type: "ReLU"
  bottom: "fc7"
  top: "fc7"
}
layer {
  name: "drop7"
  type: "Dropout"
  bottom: "fc7"
  top: "fc7"
  dropout_param {
    dropout_ratio: 0.5
  }
}
layer {
  name: "fc8"
  type: "InnerProduct"
  bottom: "fc7"
  top: "fc8"
  param {
    lr_mult: 1
    decay_mult: 1
  }
  param {
    lr_mult: 2
    decay_mult: 0
  }
  inner_product_param {
    num_output: 1000
    weight_filler {
      type: "gaussian"
      std: 0.01
    }
    bias_filler {
      type: "constant"
      value: 0
    }
  }
}
layer {
  name: "accuracy"
  type: "Accuracy"
  bottom: "fc8"
  bottom: "label"
  top: "accuracy"
  include {
    phase: TEST
  }
}
layer {
  name: "loss"
  type: "SoftmaxWithLoss"
  bottom: "fc8"
  bottom: "label"
  top: "loss"
}
I0315 00:30:23.688714 2663039808 layer_factory.hpp:77] Creating layer data
I0315 00:30:23.688834 2663039808 db_lmdb.cpp:35] Opened lmdb ../ilsvrc12_val_lmdb
I0315 00:30:23.688850 2663039808 net.cpp:84] Creating Layer data
I0315 00:30:23.688856 2663039808 net.cpp:380] data -> data
I0315 00:30:23.688863 2663039808 net.cpp:380] data -> label
I0315 00:30:23.688868 2663039808 data_transformer.cpp:25] Loading mean file from: ../imagenet_mean.binaryproto
I0315 00:30:23.690560 2663039808 data_layer.cpp:45] output data size: 4,3,224,224
I0315 00:30:23.696004 2663039808 net.cpp:122] Setting up data
I0315 00:30:23.696045 2663039808 net.cpp:129] Top shape: 4 3 224 224 (602112)
I0315 00:30:23.696061 2663039808 net.cpp:129] Top shape: 4 (4)
I0315 00:30:23.696069 2663039808 net.cpp:137] Memory required for data: 2408464
I0315 00:30:23.696077 2663039808 layer_factory.hpp:77] Creating layer label_data_1_split
I0315 00:30:23.696089 2663039808 net.cpp:84] Creating Layer label_data_1_split
I0315 00:30:23.696095 2663039808 net.cpp:406] label_data_1_split <- label
I0315 00:30:23.696105 2663039808 net.cpp:380] label_data_1_split -> label_data_1_split_0
I0315 00:30:23.696115 2663039808 net.cpp:380] label_data_1_split -> label_data_1_split_1
I0315 00:30:23.696123 2663039808 net.cpp:122] Setting up label_data_1_split
I0315 00:30:23.696130 2663039808 net.cpp:129] Top shape: 4 (4)
I0315 00:30:23.696136 2663039808 net.cpp:129] Top shape: 4 (4)
I0315 00:30:23.696142 2663039808 net.cpp:137] Memory required for data: 2408496
I0315 00:30:23.696148 2663039808 layer_factory.hpp:77] Creating layer conv1
I0315 00:30:23.696159 2663039808 net.cpp:84] Creating Layer conv1
I0315 00:30:23.696166 2663039808 net.cpp:406] conv1 <- data
I0315 00:30:23.696192 2663039808 net.cpp:380] conv1 -> conv1
I0315 00:30:23.696787 2663039808 net.cpp:122] Setting up conv1
I0315 00:30:23.696799 2663039808 net.cpp:129] Top shape: 4 96 54 54 (1119744)
I0315 00:30:23.696806 2663039808 net.cpp:137] Memory required for data: 6887472
I0315 00:30:23.696815 2663039808 layer_factory.hpp:77] Creating layer relu1
I0315 00:30:23.696825 2663039808 net.cpp:84] Creating Layer relu1
I0315 00:30:23.696830 2663039808 net.cpp:406] relu1 <- conv1
I0315 00:30:23.696836 2663039808 net.cpp:367] relu1 -> conv1 (in-place)
I0315 00:30:23.696857 2663039808 net.cpp:122] Setting up relu1
I0315 00:30:23.696862 2663039808 net.cpp:129] Top shape: 4 96 54 54 (1119744)
I0315 00:30:23.696868 2663039808 net.cpp:137] Memory required for data: 11366448
I0315 00:30:23.696874 2663039808 layer_factory.hpp:77] Creating layer pool1
I0315 00:30:23.696882 2663039808 net.cpp:84] Creating Layer pool1
I0315 00:30:23.696887 2663039808 net.cpp:406] pool1 <- conv1
I0315 00:30:23.696892 2663039808 net.cpp:380] pool1 -> pool1
I0315 00:30:23.696902 2663039808 net.cpp:122] Setting up pool1
I0315 00:30:23.698307 2663039808 net.cpp:129] Top shape: 4 96 27 27 (279936)
I0315 00:30:23.698346 2663039808 net.cpp:137] Memory required for data: 12486192
I0315 00:30:23.698364 2663039808 layer_factory.hpp:77] Creating layer norm1
I0315 00:30:23.698391 2663039808 net.cpp:84] Creating Layer norm1
I0315 00:30:23.698408 2663039808 net.cpp:406] norm1 <- pool1
I0315 00:30:23.698426 2663039808 net.cpp:380] norm1 -> norm1
I0315 00:30:23.698556 2663039808 net.cpp:122] Setting up norm1
I0315 00:30:23.698570 2663039808 net.cpp:129] Top shape: 4 96 27 27 (279936)
I0315 00:30:23.698586 2663039808 net.cpp:137] Memory required for data: 13605936
I0315 00:30:23.698591 2663039808 layer_factory.hpp:77] Creating layer conv2
I0315 00:30:23.698601 2663039808 net.cpp:84] Creating Layer conv2
I0315 00:30:23.698604 2663039808 net.cpp:406] conv2 <- norm1
I0315 00:30:23.698611 2663039808 net.cpp:380] conv2 -> conv2
I0315 00:30:23.705278 2663039808 net.cpp:122] Setting up conv2
I0315 00:30:23.705297 2663039808 net.cpp:129] Top shape: 4 256 27 27 (746496)
I0315 00:30:23.705307 2663039808 net.cpp:137] Memory required for data: 16591920
I0315 00:30:23.705317 2663039808 layer_factory.hpp:77] Creating layer relu2
I0315 00:30:23.705327 2663039808 net.cpp:84] Creating Layer relu2
I0315 00:30:23.705333 2663039808 net.cpp:406] relu2 <- conv2
I0315 00:30:23.705341 2663039808 net.cpp:367] relu2 -> conv2 (in-place)
I0315 00:30:23.705350 2663039808 net.cpp:122] Setting up relu2
I0315 00:30:23.705355 2663039808 net.cpp:129] Top shape: 4 256 27 27 (746496)
I0315 00:30:23.705363 2663039808 net.cpp:137] Memory required for data: 19577904
I0315 00:30:23.705368 2663039808 layer_factory.hpp:77] Creating layer pool2
I0315 00:30:23.705377 2663039808 net.cpp:84] Creating Layer pool2
I0315 00:30:23.705384 2663039808 net.cpp:406] pool2 <- conv2
I0315 00:30:23.705389 2663039808 net.cpp:380] pool2 -> pool2
I0315 00:30:23.705400 2663039808 net.cpp:122] Setting up pool2
I0315 00:30:23.705889 2663039808 net.cpp:129] Top shape: 4 256 13 13 (173056)
I0315 00:30:23.705899 2663039808 net.cpp:137] Memory required for data: 20270128
I0315 00:30:23.705905 2663039808 layer_factory.hpp:77] Creating layer norm2
I0315 00:30:23.705914 2663039808 net.cpp:84] Creating Layer norm2
I0315 00:30:23.705919 2663039808 net.cpp:406] norm2 <- pool2
I0315 00:30:23.705926 2663039808 net.cpp:380] norm2 -> norm2
I0315 00:30:23.705935 2663039808 net.cpp:122] Setting up norm2
I0315 00:30:23.705940 2663039808 net.cpp:129] Top shape: 4 256 13 13 (173056)
I0315 00:30:23.705963 2663039808 net.cpp:137] Memory required for data: 20962352
I0315 00:30:23.705971 2663039808 layer_factory.hpp:77] Creating layer conv3
I0315 00:30:23.705981 2663039808 net.cpp:84] Creating Layer conv3
I0315 00:30:23.705987 2663039808 net.cpp:406] conv3 <- norm2
I0315 00:30:23.705994 2663039808 net.cpp:380] conv3 -> conv3
I0315 00:30:23.717097 2663039808 net.cpp:122] Setting up conv3
I0315 00:30:23.717121 2663039808 net.cpp:129] Top shape: 4 384 13 13 (259584)
I0315 00:30:23.717131 2663039808 net.cpp:137] Memory required for data: 22000688
I0315 00:30:23.717152 2663039808 layer_factory.hpp:77] Creating layer relu3
I0315 00:30:23.717167 2663039808 net.cpp:84] Creating Layer relu3
I0315 00:30:23.717173 2663039808 net.cpp:406] relu3 <- conv3
I0315 00:30:23.717181 2663039808 net.cpp:367] relu3 -> conv3 (in-place)
I0315 00:30:23.717190 2663039808 net.cpp:122] Setting up relu3
I0315 00:30:23.717195 2663039808 net.cpp:129] Top shape: 4 384 13 13 (259584)
I0315 00:30:23.717202 2663039808 net.cpp:137] Memory required for data: 23039024
I0315 00:30:23.717207 2663039808 layer_factory.hpp:77] Creating layer conv4
I0315 00:30:23.717229 2663039808 net.cpp:84] Creating Layer conv4
I0315 00:30:23.717236 2663039808 net.cpp:406] conv4 <- conv3
I0315 00:30:23.717242 2663039808 net.cpp:380] conv4 -> conv4
I0315 00:30:23.724912 2663039808 net.cpp:122] Setting up conv4
I0315 00:30:23.724933 2663039808 net.cpp:129] Top shape: 4 384 13 13 (259584)
I0315 00:30:23.724942 2663039808 net.cpp:137] Memory required for data: 24077360
I0315 00:30:23.724951 2663039808 layer_factory.hpp:77] Creating layer relu4
I0315 00:30:23.724973 2663039808 net.cpp:84] Creating Layer relu4
I0315 00:30:23.724980 2663039808 net.cpp:406] relu4 <- conv4
I0315 00:30:23.724987 2663039808 net.cpp:367] relu4 -> conv4 (in-place)
I0315 00:30:23.724997 2663039808 net.cpp:122] Setting up relu4
I0315 00:30:23.725001 2663039808 net.cpp:129] Top shape: 4 384 13 13 (259584)
I0315 00:30:23.725008 2663039808 net.cpp:137] Memory required for data: 25115696
I0315 00:30:23.725018 2663039808 layer_factory.hpp:77] Creating layer conv5
I0315 00:30:23.725028 2663039808 net.cpp:84] Creating Layer conv5
I0315 00:30:23.725033 2663039808 net.cpp:406] conv5 <- conv4
I0315 00:30:23.725040 2663039808 net.cpp:380] conv5 -> conv5
I0315 00:30:23.729975 2663039808 net.cpp:122] Setting up conv5
I0315 00:30:23.729992 2663039808 net.cpp:129] Top shape: 4 256 13 13 (173056)
I0315 00:30:23.730001 2663039808 net.cpp:137] Memory required for data: 25807920
I0315 00:30:23.730011 2663039808 layer_factory.hpp:77] Creating layer relu5
I0315 00:30:23.730020 2663039808 net.cpp:84] Creating Layer relu5
I0315 00:30:23.730026 2663039808 net.cpp:406] relu5 <- conv5
I0315 00:30:23.730033 2663039808 net.cpp:367] relu5 -> conv5 (in-place)
I0315 00:30:23.730041 2663039808 net.cpp:122] Setting up relu5
I0315 00:30:23.730046 2663039808 net.cpp:129] Top shape: 4 256 13 13 (173056)
I0315 00:30:23.730053 2663039808 net.cpp:137] Memory required for data: 26500144
I0315 00:30:23.730059 2663039808 layer_factory.hpp:77] Creating layer pool5
I0315 00:30:23.730067 2663039808 net.cpp:84] Creating Layer pool5
I0315 00:30:23.730072 2663039808 net.cpp:406] pool5 <- conv5
I0315 00:30:23.730079 2663039808 net.cpp:380] pool5 -> pool5
I0315 00:30:23.730089 2663039808 net.cpp:122] Setting up pool5
I0315 00:30:23.730094 2663039808 net.cpp:129] Top shape: 4 256 6 6 (36864)
I0315 00:30:23.730103 2663039808 net.cpp:137] Memory required for data: 26647600
I0315 00:30:23.730108 2663039808 layer_factory.hpp:77] Creating layer fc6
I0315 00:30:23.730115 2663039808 net.cpp:84] Creating Layer fc6
I0315 00:30:23.730120 2663039808 net.cpp:406] fc6 <- pool5
I0315 00:30:23.730126 2663039808 net.cpp:380] fc6 -> fc6
I0315 00:30:24.159071 2663039808 net.cpp:122] Setting up fc6
I0315 00:30:24.159104 2663039808 net.cpp:129] Top shape: 4 4096 (16384)
I0315 00:30:24.159111 2663039808 net.cpp:137] Memory required for data: 26713136
I0315 00:30:24.159117 2663039808 layer_factory.hpp:77] Creating layer relu6
I0315 00:30:24.159126 2663039808 net.cpp:84] Creating Layer relu6
I0315 00:30:24.159131 2663039808 net.cpp:406] relu6 <- fc6
I0315 00:30:24.159135 2663039808 net.cpp:367] relu6 -> fc6 (in-place)
I0315 00:30:24.159142 2663039808 net.cpp:122] Setting up relu6
I0315 00:30:24.159147 2663039808 net.cpp:129] Top shape: 4 4096 (16384)
I0315 00:30:24.159152 2663039808 net.cpp:137] Memory required for data: 26778672
I0315 00:30:24.159157 2663039808 layer_factory.hpp:77] Creating layer drop6
I0315 00:30:24.159164 2663039808 net.cpp:84] Creating Layer drop6
I0315 00:30:24.159168 2663039808 net.cpp:406] drop6 <- fc6
I0315 00:30:24.159173 2663039808 net.cpp:367] drop6 -> fc6 (in-place)
I0315 00:30:24.159180 2663039808 net.cpp:122] Setting up drop6
I0315 00:30:24.159210 2663039808 net.cpp:129] Top shape: 4 4096 (16384)
I0315 00:30:24.159219 2663039808 net.cpp:137] Memory required for data: 26844208
I0315 00:30:24.159224 2663039808 layer_factory.hpp:77] Creating layer fc7
I0315 00:30:24.159250 2663039808 net.cpp:84] Creating Layer fc7
I0315 00:30:24.159261 2663039808 net.cpp:406] fc7 <- fc6
I0315 00:30:24.159268 2663039808 net.cpp:380] fc7 -> fc7
I0315 00:30:24.349354 2663039808 net.cpp:122] Setting up fc7
I0315 00:30:24.349385 2663039808 net.cpp:129] Top shape: 4 4096 (16384)
I0315 00:30:24.349391 2663039808 net.cpp:137] Memory required for data: 26909744
I0315 00:30:24.349397 2663039808 layer_factory.hpp:77] Creating layer relu7
I0315 00:30:24.349406 2663039808 net.cpp:84] Creating Layer relu7
I0315 00:30:24.349411 2663039808 net.cpp:406] relu7 <- fc7
I0315 00:30:24.349416 2663039808 net.cpp:367] relu7 -> fc7 (in-place)
I0315 00:30:24.349422 2663039808 net.cpp:122] Setting up relu7
I0315 00:30:24.349426 2663039808 net.cpp:129] Top shape: 4 4096 (16384)
I0315 00:30:24.349429 2663039808 net.cpp:137] Memory required for data: 26975280
I0315 00:30:24.349433 2663039808 layer_factory.hpp:77] Creating layer drop7
I0315 00:30:24.349438 2663039808 net.cpp:84] Creating Layer drop7
I0315 00:30:24.349442 2663039808 net.cpp:406] drop7 <- fc7
I0315 00:30:24.349454 2663039808 net.cpp:367] drop7 -> fc7 (in-place)
I0315 00:30:24.349460 2663039808 net.cpp:122] Setting up drop7
I0315 00:30:24.349524 2663039808 net.cpp:129] Top shape: 4 4096 (16384)
I0315 00:30:24.349535 2663039808 net.cpp:137] Memory required for data: 27040816
I0315 00:30:24.349539 2663039808 layer_factory.hpp:77] Creating layer fc8
I0315 00:30:24.349545 2663039808 net.cpp:84] Creating Layer fc8
I0315 00:30:24.349550 2663039808 net.cpp:406] fc8 <- fc7
I0315 00:30:24.349555 2663039808 net.cpp:380] fc8 -> fc8
I0315 00:30:24.395725 2663039808 net.cpp:122] Setting up fc8
I0315 00:30:24.395757 2663039808 net.cpp:129] Top shape: 4 1000 (4000)
I0315 00:30:24.395766 2663039808 net.cpp:137] Memory required for data: 27056816
I0315 00:30:24.395776 2663039808 layer_factory.hpp:77] Creating layer fc8_fc8_0_split
I0315 00:30:24.395787 2663039808 net.cpp:84] Creating Layer fc8_fc8_0_split
I0315 00:30:24.395793 2663039808 net.cpp:406] fc8_fc8_0_split <- fc8
I0315 00:30:24.395802 2663039808 net.cpp:380] fc8_fc8_0_split -> fc8_fc8_0_split_0
I0315 00:30:24.395812 2663039808 net.cpp:380] fc8_fc8_0_split -> fc8_fc8_0_split_1
I0315 00:30:24.395822 2663039808 net.cpp:122] Setting up fc8_fc8_0_split
I0315 00:30:24.395828 2663039808 net.cpp:129] Top shape: 4 1000 (4000)
I0315 00:30:24.395834 2663039808 net.cpp:129] Top shape: 4 1000 (4000)
I0315 00:30:24.395841 2663039808 net.cpp:137] Memory required for data: 27088816
I0315 00:30:24.395846 2663039808 layer_factory.hpp:77] Creating layer accuracy
I0315 00:30:24.395854 2663039808 net.cpp:84] Creating Layer accuracy
I0315 00:30:24.395859 2663039808 net.cpp:406] accuracy <- fc8_fc8_0_split_0
I0315 00:30:24.395864 2663039808 net.cpp:406] accuracy <- label_data_1_split_0
I0315 00:30:24.395870 2663039808 net.cpp:380] accuracy -> accuracy
…
