…
I0314 18:13:07.458168 2663039808 net.cpp:294] The NetState phase (0) differed from the phase (1) specified by a rule in layer accuracy
I0314 18:13:07.458173 2663039808 net.cpp:51] Initializing net from parameters: 
name: "CaffeNet"
state {
  phase: TRAIN
  level: 0
  stage: ""
}
layer {
  name: "data"
  type: "Data"
  top: "data"
  top: "label"
  include {
    phase: TRAIN
  }
  transform_param {
    mirror: true
    crop_size: 224
    mean_file: "../imagenet_mean.binaryproto"
  }
  data_param {
    source: "../ilsvrc12_train_lmdb"
    batch_size: 8
    backend: LMDB
  }
}
layer {
  name: "conv1"
  type: "Convolution"
  bottom: "data"
  top: "conv1"
  param {
    lr_mult: 1
    decay_mult: 1
  }
  param {
    lr_mult: 2
    decay_mult: 0
  }
  convolution_param {
    num_output: 96
    kernel_size: 11
    stride: 4
    weight_filler {
      type: "gaussian"
      std: 0.01
    }
    bias_filler {
      type: "constant"
      value: 0
    }
  }
}
layer {
  name: "relu1"
  type: "ReLU"
  bottom: "conv1"
  top: "conv1"
}
layer {
  name: "pool1"
  type: "Pooling"
  bottom: "conv1"
  top: "pool1"
  pooling_param {
    pool: MAX
    kernel_size: 3
    stride: 2
  }
}
layer {
  name: "norm1"
  type: "LRN"
  bottom: "pool1"
  top: "norm1"
  lrn_param {
    local_size: 5
    alpha: 0.0001
    beta: 0.75
  }
}
layer {
  name: "conv2"
  type: "Convolution"
  bottom: "norm1"
  top: "conv2"
  param {
    lr_mult: 1
    decay_mult: 1
  }
  param {
    lr_mult: 2
    decay_mult: 0
  }
  convolution_param {
    num_output: 256
    pad: 2
    kernel_size: 5
    group: 2
    weight_filler {
      type: "gaussian"
      std: 0.01
    }
    bias_filler {
      type: "constant"
      value: 1
    }
  }
}
layer {
  name: "relu2"
  type: "ReLU"
  bottom: "conv2"
  top: "conv2"
}
layer {
  name: "pool2"
  type: "Pooling"
  bottom: "conv2"
  top: "pool2"
  pooling_param {
    pool: MAX
    kernel_size: 3
    stride: 2
  }
}
layer {
  name: "norm2"
  type: "LRN"
  bottom: "pool2"
  top: "norm2"
  lrn_param {
    local_size: 5
    alpha: 0.0001
    beta: 0.75
  }
}
layer {
  name: "conv3"
  type: "Convolution"
  bottom: "norm2"
  top: "conv3"
  param {
    lr_mult: 1
    decay_mult: 1
  }
  param {
    lr_mult: 2
    decay_mult: 0
  }
  convolution_param {
    num_output: 384
    pad: 1
    kernel_size: 3
    weight_filler {
      type: "gaussian"
      std: 0.01
    }
    bias_filler {
      type: "constant"
      value: 0
    }
  }
}
layer {
  name: "relu3"
  type: "ReLU"
  bottom: "conv3"
  top: "conv3"
}
layer {
  name: "conv4"
  type: "Convolution"
  bottom: "conv3"
  top: "conv4"
  param {
    lr_mult: 1
    decay_mult: 1
  }
  param {
    lr_mult: 2
    decay_mult: 0
  }
  convolution_param {
    num_output: 384
    pad: 1
    kernel_size: 3
    group: 2
    weight_filler {
      type: "gaussian"
      std: 0.01
    }
    bias_filler {
      type: "constant"
      value: 1
    }
  }
}
layer {
  name: "relu4"
  type: "ReLU"
  bottom: "conv4"
  top: "conv4"
}
layer {
  name: "conv5"
  type: "Convolution"
  bottom: "conv4"
  top: "conv5"
  param {
    lr_mult: 1
    decay_mult: 1
  }
  param {
    lr_mult: 2
    decay_mult: 0
  }
  convolution_param {
    num_output: 256
    pad: 1
    kernel_size: 3
    group: 2
    weight_filler {
      type: "gaussian"
      std: 0.01
    }
    bias_filler {
      type: "constant"
      value: 1
    }
  }
}
layer {
  name: "relu5"
  type: "ReLU"
  bottom: "conv5"
  top: "conv5"
}
layer {
  name: "pool5"
  type: "Pooling"
  bottom: "conv5"
  top: "pool5"
  pooling_param {
    pool: MAX
    kernel_size: 3
    stride: 2
  }
}
layer {
  name: "fc6"
  type: "InnerProduct"
  bottom: "pool5"
  top: "fc6"
  param {
    lr_mult: 1
    decay_mult: 1
  }
  param {
    lr_mult: 2
    decay_mult: 0
  }
  inner_product_param {
    num_output: 4096
    weight_filler {
      type: "gaussian"
      std: 0.005
    }
    bias_filler {
      type: "constant"
      value: 1
    }
  }
}
layer {
  name: "relu6"
  type: "ReLU"
  bottom: "fc6"
  top: "fc6"
}
layer {
  name: "drop6"
  type: "Dropout"
  bottom: "fc6"
  top: "fc6"
  dropout_param {
    dropout_ratio: 0.6
  }
}
layer {
  name: "fc7"
  type: "InnerProduct"
  bottom: "fc6"
  top: "fc7"
  param {
    lr_mult: 1
    decay_mult: 1
  }
  param {
    lr_mult: 2
    decay_mult: 0
  }
  inner_product_param {
    num_output: 4096
    weight_filler {
      type: "gaussian"
      std: 0.005
    }
    bias_filler {
      type: "constant"
      value: 1
    }
  }
}
layer {
  name: "relu7"
  type: "ReLU"
  bottom: "fc7"
  top: "fc7"
}
layer {
  name: "drop7"
  type: "Dropout"
  bottom: "fc7"
  top: "fc7"
  dropout_param {
    dropout_ratio: 0.5
  }
}
layer {
  name: "fc8"
  type: "InnerProduct"
  bottom: "fc7"
  top: "fc8"
  param {
    lr_mult: 1
    decay_mult: 1
  }
  param {
    lr_mult: 2
    decay_mult: 0
  }
  inner_product_param {
    num_output: 1000
    weight_filler {
      type: "gaussian"
      std: 0.01
    }
    bias_filler {
      type: "constant"
      value: 0
    }
  }
}
layer {
  name: "loss"
  type: "SoftmaxWithLoss"
  bottom: "fc8"
  bottom: "label"
  top: "loss"
}
I0314 18:13:07.470690 2663039808 layer_factory.hpp:77] Creating layer data
I0314 18:13:07.471132 2663039808 db_lmdb.cpp:35] Opened lmdb ../ilsvrc12_train_lmdb
I0314 18:13:07.471283 2663039808 net.cpp:84] Creating Layer data
I0314 18:13:07.471302 2663039808 net.cpp:380] data -> data
I0314 18:13:07.471335 2663039808 net.cpp:380] data -> label
I0314 18:13:07.471349 2663039808 data_transformer.cpp:25] Loading mean file from: ../imagenet_mean.binaryproto
I0314 18:13:07.483611 2663039808 data_layer.cpp:45] output data size: 8,3,224,224
I0314 18:13:07.491173 2663039808 net.cpp:122] Setting up data
I0314 18:13:07.491205 2663039808 net.cpp:129] Top shape: 8 3 224 224 (1204224)
I0314 18:13:07.491212 2663039808 net.cpp:129] Top shape: 8 (8)
I0314 18:13:07.491216 2663039808 net.cpp:137] Memory required for data: 4816928
I0314 18:13:07.491225 2663039808 layer_factory.hpp:77] Creating layer conv1
I0314 18:13:07.491237 2663039808 net.cpp:84] Creating Layer conv1
I0314 18:13:07.491241 2663039808 net.cpp:406] conv1 <- data
I0314 18:13:07.491247 2663039808 net.cpp:380] conv1 -> conv1
I0314 18:13:07.491696 2663039808 net.cpp:122] Setting up conv1
I0314 18:13:07.491708 2663039808 net.cpp:129] Top shape: 8 96 54 54 (2239488)
I0314 18:13:07.491715 2663039808 net.cpp:137] Memory required for data: 13774880
I0314 18:13:07.491727 2663039808 layer_factory.hpp:77] Creating layer relu1
I0314 18:13:07.491740 2663039808 net.cpp:84] Creating Layer relu1
I0314 18:13:07.491746 2663039808 net.cpp:406] relu1 <- conv1
I0314 18:13:07.491753 2663039808 net.cpp:367] relu1 -> conv1 (in-place)
I0314 18:13:07.491761 2663039808 net.cpp:122] Setting up relu1
I0314 18:13:07.491766 2663039808 net.cpp:129] Top shape: 8 96 54 54 (2239488)
I0314 18:13:07.491775 2663039808 net.cpp:137] Memory required for data: 22732832
I0314 18:13:07.491780 2663039808 layer_factory.hpp:77] Creating layer pool1
I0314 18:13:07.491787 2663039808 net.cpp:84] Creating Layer pool1
I0314 18:13:07.491792 2663039808 net.cpp:406] pool1 <- conv1
I0314 18:13:07.491801 2663039808 net.cpp:380] pool1 -> pool1
I0314 18:13:07.491811 2663039808 net.cpp:122] Setting up pool1
I0314 18:13:07.491816 2663039808 net.cpp:129] Top shape: 8 96 27 27 (559872)
I0314 18:13:07.491822 2663039808 net.cpp:137] Memory required for data: 24972320
I0314 18:13:07.491827 2663039808 layer_factory.hpp:77] Creating layer norm1
I0314 18:13:07.492002 2663039808 net.cpp:84] Creating Layer norm1
I0314 18:13:07.492014 2663039808 net.cpp:406] norm1 <- pool1
I0314 18:13:07.492022 2663039808 net.cpp:380] norm1 -> norm1
I0314 18:13:07.492036 2663039808 net.cpp:122] Setting up norm1
I0314 18:13:07.492043 2663039808 net.cpp:129] Top shape: 8 96 27 27 (559872)
I0314 18:13:07.492050 2663039808 net.cpp:137] Memory required for data: 27211808
I0314 18:13:07.492056 2663039808 layer_factory.hpp:77] Creating layer conv2
I0314 18:13:07.492066 2663039808 net.cpp:84] Creating Layer conv2
I0314 18:13:07.492072 2663039808 net.cpp:406] conv2 <- norm1
I0314 18:13:07.492079 2663039808 net.cpp:380] conv2 -> conv2
I0314 18:13:07.495862 2663039808 net.cpp:122] Setting up conv2
I0314 18:13:07.495880 2663039808 net.cpp:129] Top shape: 8 256 27 27 (1492992)
I0314 18:13:07.495890 2663039808 net.cpp:137] Memory required for data: 33183776
I0314 18:13:07.495903 2663039808 layer_factory.hpp:77] Creating layer relu2
I0314 18:13:07.495913 2663039808 net.cpp:84] Creating Layer relu2
I0314 18:13:07.495919 2663039808 net.cpp:406] relu2 <- conv2
I0314 18:13:07.495928 2663039808 net.cpp:367] relu2 -> conv2 (in-place)
I0314 18:13:07.495935 2663039808 net.cpp:122] Setting up relu2
I0314 18:13:07.495940 2663039808 net.cpp:129] Top shape: 8 256 27 27 (1492992)
I0314 18:13:07.495946 2663039808 net.cpp:137] Memory required for data: 39155744
I0314 18:13:07.495952 2663039808 layer_factory.hpp:77] Creating layer pool2
I0314 18:13:07.495960 2663039808 net.cpp:84] Creating Layer pool2
I0314 18:13:07.495965 2663039808 net.cpp:406] pool2 <- conv2
I0314 18:13:07.495972 2663039808 net.cpp:380] pool2 -> pool2
I0314 18:13:07.495982 2663039808 net.cpp:122] Setting up pool2
I0314 18:13:07.495988 2663039808 net.cpp:129] Top shape: 8 256 13 13 (346112)
I0314 18:13:07.495995 2663039808 net.cpp:137] Memory required for data: 40540192
I0314 18:13:07.496001 2663039808 layer_factory.hpp:77] Creating layer norm2
I0314 18:13:07.496011 2663039808 net.cpp:84] Creating Layer norm2
I0314 18:13:07.496016 2663039808 net.cpp:406] norm2 <- pool2
I0314 18:13:07.496022 2663039808 net.cpp:380] norm2 -> norm2
I0314 18:13:07.496031 2663039808 net.cpp:122] Setting up norm2
I0314 18:13:07.496035 2663039808 net.cpp:129] Top shape: 8 256 13 13 (346112)
I0314 18:13:07.496042 2663039808 net.cpp:137] Memory required for data: 41924640
I0314 18:13:07.496048 2663039808 layer_factory.hpp:77] Creating layer conv3
I0314 18:13:07.496057 2663039808 net.cpp:84] Creating Layer conv3
I0314 18:13:07.496063 2663039808 net.cpp:406] conv3 <- norm2
I0314 18:13:07.496070 2663039808 net.cpp:380] conv3 -> conv3
I0314 18:13:07.509228 2663039808 net.cpp:122] Setting up conv3
I0314 18:13:07.509269 2663039808 net.cpp:129] Top shape: 8 384 13 13 (519168)
I0314 18:13:07.509281 2663039808 net.cpp:137] Memory required for data: 44001312
I0314 18:13:07.509295 2663039808 layer_factory.hpp:77] Creating layer relu3
I0314 18:13:07.509308 2663039808 net.cpp:84] Creating Layer relu3
I0314 18:13:07.509315 2663039808 net.cpp:406] relu3 <- conv3
I0314 18:13:07.509325 2663039808 net.cpp:367] relu3 -> conv3 (in-place)
I0314 18:13:07.509333 2663039808 net.cpp:122] Setting up relu3
I0314 18:13:07.509338 2663039808 net.cpp:129] Top shape: 8 384 13 13 (519168)
I0314 18:13:07.509346 2663039808 net.cpp:137] Memory required for data: 46077984
I0314 18:13:07.509351 2663039808 layer_factory.hpp:77] Creating layer conv4
I0314 18:13:07.509363 2663039808 net.cpp:84] Creating Layer conv4
I0314 18:13:07.509369 2663039808 net.cpp:406] conv4 <- conv3
I0314 18:13:07.509376 2663039808 net.cpp:380] conv4 -> conv4
I0314 18:13:07.517786 2663039808 net.cpp:122] Setting up conv4
I0314 18:13:07.517830 2663039808 net.cpp:129] Top shape: 8 384 13 13 (519168)
I0314 18:13:07.517840 2663039808 net.cpp:137] Memory required for data: 48154656
I0314 18:13:07.517853 2663039808 layer_factory.hpp:77] Creating layer relu4
I0314 18:13:07.517865 2663039808 net.cpp:84] Creating Layer relu4
I0314 18:13:07.517871 2663039808 net.cpp:406] relu4 <- conv4
I0314 18:13:07.517879 2663039808 net.cpp:367] relu4 -> conv4 (in-place)
I0314 18:13:07.517907 2663039808 net.cpp:122] Setting up relu4
I0314 18:13:07.517912 2663039808 net.cpp:129] Top shape: 8 384 13 13 (519168)
I0314 18:13:07.517918 2663039808 net.cpp:137] Memory required for data: 50231328
I0314 18:13:07.517923 2663039808 layer_factory.hpp:77] Creating layer conv5
I0314 18:13:07.517936 2663039808 net.cpp:84] Creating Layer conv5
I0314 18:13:07.517942 2663039808 net.cpp:406] conv5 <- conv4
I0314 18:13:07.517951 2663039808 net.cpp:380] conv5 -> conv5
I0314 18:13:07.522982 2663039808 net.cpp:122] Setting up conv5
I0314 18:13:07.523020 2663039808 net.cpp:129] Top shape: 8 256 13 13 (346112)
I0314 18:13:07.523062 2663039808 net.cpp:137] Memory required for data: 51615776
I0314 18:13:07.523077 2663039808 layer_factory.hpp:77] Creating layer relu5
I0314 18:13:07.523088 2663039808 net.cpp:84] Creating Layer relu5
I0314 18:13:07.523094 2663039808 net.cpp:406] relu5 <- conv5
I0314 18:13:07.523102 2663039808 net.cpp:367] relu5 -> conv5 (in-place)
I0314 18:13:07.523131 2663039808 net.cpp:122] Setting up relu5
I0314 18:13:07.523138 2663039808 net.cpp:129] Top shape: 8 256 13 13 (346112)
I0314 18:13:07.523145 2663039808 net.cpp:137] Memory required for data: 53000224
I0314 18:13:07.523150 2663039808 layer_factory.hpp:77] Creating layer pool5
I0314 18:13:07.523159 2663039808 net.cpp:84] Creating Layer pool5
I0314 18:13:07.523164 2663039808 net.cpp:406] pool5 <- conv5
I0314 18:13:07.523169 2663039808 net.cpp:380] pool5 -> pool5
I0314 18:13:07.523180 2663039808 net.cpp:122] Setting up pool5
I0314 18:13:07.523185 2663039808 net.cpp:129] Top shape: 8 256 6 6 (73728)
I0314 18:13:07.523190 2663039808 net.cpp:137] Memory required for data: 53295136
I0314 18:13:07.523195 2663039808 layer_factory.hpp:77] Creating layer fc6
I0314 18:13:07.523205 2663039808 net.cpp:84] Creating Layer fc6
I0314 18:13:07.523211 2663039808 net.cpp:406] fc6 <- pool5
I0314 18:13:07.523216 2663039808 net.cpp:380] fc6 -> fc6
I0314 18:13:07.964042 2663039808 net.cpp:122] Setting up fc6
I0314 18:13:07.964082 2663039808 net.cpp:129] Top shape: 8 4096 (32768)
I0314 18:13:07.964167 2663039808 net.cpp:137] Memory required for data: 53426208
I0314 18:13:07.964181 2663039808 layer_factory.hpp:77] Creating layer relu6
I0314 18:13:07.964196 2663039808 net.cpp:84] Creating Layer relu6
I0314 18:13:07.964203 2663039808 net.cpp:406] relu6 <- fc6
I0314 18:13:07.964212 2663039808 net.cpp:367] relu6 -> fc6 (in-place)
I0314 18:13:07.964222 2663039808 net.cpp:122] Setting up relu6
I0314 18:13:07.964228 2663039808 net.cpp:129] Top shape: 8 4096 (32768)
I0314 18:13:07.964236 2663039808 net.cpp:137] Memory required for data: 53557280
I0314 18:13:07.964241 2663039808 layer_factory.hpp:77] Creating layer drop6
I0314 18:13:07.964251 2663039808 net.cpp:84] Creating Layer drop6
I0314 18:13:07.964256 2663039808 net.cpp:406] drop6 <- fc6
I0314 18:13:07.964262 2663039808 net.cpp:367] drop6 -> fc6 (in-place)
I0314 18:13:07.964280 2663039808 net.cpp:122] Setting up drop6
I0314 18:13:07.964287 2663039808 net.cpp:129] Top shape: 8 4096 (32768)
I0314 18:13:07.964293 2663039808 net.cpp:137] Memory required for data: 53688352
I0314 18:13:07.964416 2663039808 layer_factory.hpp:77] Creating layer fc7
I0314 18:13:07.964431 2663039808 net.cpp:84] Creating Layer fc7
I0314 18:13:07.964437 2663039808 net.cpp:406] fc7 <- fc6
I0314 18:13:07.964447 2663039808 net.cpp:380] fc7 -> fc7
I0314 18:13:08.154973 2663039808 net.cpp:122] Setting up fc7
I0314 18:13:08.155004 2663039808 net.cpp:129] Top shape: 8 4096 (32768)
I0314 18:13:08.155012 2663039808 net.cpp:137] Memory required for data: 53819424
I0314 18:13:08.155021 2663039808 layer_factory.hpp:77] Creating layer relu7
I0314 18:13:08.155031 2663039808 net.cpp:84] Creating Layer relu7
I0314 18:13:08.155038 2663039808 net.cpp:406] relu7 <- fc7
I0314 18:13:08.155045 2663039808 net.cpp:367] relu7 -> fc7 (in-place)
I0314 18:13:08.155053 2663039808 net.cpp:122] Setting up relu7
I0314 18:13:08.155057 2663039808 net.cpp:129] Top shape: 8 4096 (32768)
I0314 18:13:08.155063 2663039808 net.cpp:137] Memory required for data: 53950496
I0314 18:13:08.155067 2663039808 layer_factory.hpp:77] Creating layer drop7
I0314 18:13:08.155091 2663039808 net.cpp:84] Creating Layer drop7
I0314 18:13:08.155095 2663039808 net.cpp:406] drop7 <- fc7
I0314 18:13:08.155100 2663039808 net.cpp:367] drop7 -> fc7 (in-place)
I0314 18:13:08.155108 2663039808 net.cpp:122] Setting up drop7
I0314 18:13:08.155113 2663039808 net.cpp:129] Top shape: 8 4096 (32768)
I0314 18:13:08.155118 2663039808 net.cpp:137] Memory required for data: 54081568
I0314 18:13:08.155122 2663039808 layer_factory.hpp:77] Creating layer fc8
I0314 18:13:08.155134 2663039808 net.cpp:84] Creating Layer fc8
I0314 18:13:08.155139 2663039808 net.cpp:406] fc8 <- fc7
I0314 18:13:08.155146 2663039808 net.cpp:380] fc8 -> fc8
I0314 18:13:08.204108 2663039808 net.cpp:122] Setting up fc8
I0314 18:13:08.204140 2663039808 net.cpp:129] Top shape: 8 1000 (8000)
I0314 18:13:08.204149 2663039808 net.cpp:137] Memory required for data: 54113568
I0314 18:13:08.204157 2663039808 layer_factory.hpp:77] Creating layer loss
I0314 18:13:08.204190 2663039808 net.cpp:84] Creating Layer loss
I0314 18:13:08.204198 2663039808 net.cpp:406] loss <- fc8
I0314 18:13:08.204205 2663039808 net.cpp:406] loss <- label
I0314 18:13:08.204213 2663039808 net.cpp:380] loss -> loss
…
I0314 18:13:08.205133 2663039808 solver.cpp:190] Creating test net (#0) specified by net file: models/bvlc_reference_caffenet/train_val.prototxt
I0314 18:13:08.205186 2663039808 net.cpp:294] The NetState phase (1) differed from the phase (0) specified by a rule in layer data
I0314 18:13:08.205209 2663039808 net.cpp:51] Initializing net from parameters: 
name: "CaffeNet"
state {
  phase: TEST
}
layer {
  name: "data"
  type: "Data"
  top: "data"
  top: "label"
  include {
    phase: TEST
  }
  transform_param {
    mirror: false
    crop_size: 224
    mean_file: "../imagenet_mean.binaryproto"
  }
  data_param {
    source: "../ilsvrc12_val_lmdb"
    batch_size: 4
    backend: LMDB
  }
}
layer {
  name: "conv1"
  type: "Convolution"
  bottom: "data"
  top: "conv1"
  param {
    lr_mult: 1
    decay_mult: 1
  }
  param {
    lr_mult: 2
    decay_mult: 0
  }
  convolution_param {
    num_output: 96
    kernel_size: 11
    stride: 4
    weight_filler {
      type: "gaussian"
      std: 0.01
    }
    bias_filler {
      type: "constant"
      value: 0
    }
  }
}
layer {
  name: "relu1"
  type: "ReLU"
  bottom: "conv1"
  top: "conv1"
}
layer {
  name: "pool1"
  type: "Pooling"
  bottom: "conv1"
  top: "pool1"
  pooling_param {
    pool: MAX
    kernel_size: 3
    stride: 2
  }
}
layer {
  name: "norm1"
  type: "LRN"
  bottom: "pool1"
  top: "norm1"
  lrn_param {
    local_size: 5
    alpha: 0.0001
    beta: 0.75
  }
}
layer {
  name: "conv2"
  type: "Convolution"
  bottom: "norm1"
  top: "conv2"
  param {
    lr_mult: 1
    decay_mult: 1
  }
  param {
    lr_mult: 2
    decay_mult: 0
  }
  convolution_param {
    num_output: 256
    pad: 2
    kernel_size: 5
    group: 2
    weight_filler {
      type: "gaussian"
      std: 0.01
    }
    bias_filler {
      type: "constant"
      value: 1
    }
  }
}
layer {
  name: "relu2"
  type: "ReLU"
  bottom: "conv2"
  top: "conv2"
}
layer {
  name: "pool2"
  type: "Pooling"
  bottom: "conv2"
  top: "pool2"
  pooling_param {
    pool: MAX
    kernel_size: 3
    stride: 2
  }
}
layer {
  name: "norm2"
  type: "LRN"
  bottom: "pool2"
  top: "norm2"
  lrn_param {
    local_size: 5
    alpha: 0.0001
    beta: 0.75
  }
}
layer {
  name: "conv3"
  type: "Convolution"
  bottom: "norm2"
  top: "conv3"
  param {
    lr_mult: 1
    decay_mult: 1
  }
  param {
    lr_mult: 2
    decay_mult: 0
  }
  convolution_param {
    num_output: 384
    pad: 1
    kernel_size: 3
    weight_filler {
      type: "gaussian"
      std: 0.01
    }
    bias_filler {
      type: "constant"
      value: 0
    }
  }
}
layer {
  name: "relu3"
  type: "ReLU"
  bottom: "conv3"
  top: "conv3"
}
layer {
  name: "conv4"
  type: "Convolution"
  bottom: "conv3"
  top: "conv4"
  param {
    lr_mult: 1
    decay_mult: 1
  }
  param {
    lr_mult: 2
    decay_mult: 0
  }
  convolution_param {
    num_output: 384
    pad: 1
    kernel_size: 3
    group: 2
    weight_filler {
      type: "gaussian"
      std: 0.01
    }
    bias_filler {
      type: "constant"
      value: 1
    }
  }
}
layer {
  name: "relu4"
  type: "ReLU"
  bottom: "conv4"
  top: "conv4"
}
layer {
  name: "conv5"
  type: "Convolution"
  bottom: "conv4"
  top: "conv5"
  param {
    lr_mult: 1
    decay_mult: 1
  }
  param {
    lr_mult: 2
    decay_mult: 0
  }
  convolution_param {
    num_output: 256
    pad: 1
    kernel_size: 3
    group: 2
    weight_filler {
      type: "gaussian"
      std: 0.01
    }
    bias_filler {
      type: "constant"
      value: 1
    }
  }
}
layer {
  name: "relu5"
  type: "ReLU"
  bottom: "conv5"
  top: "conv5"
}
layer {
  name: "pool5"
  type: "Pooling"
  bottom: "conv5"
  top: "pool5"
  pooling_param {
    pool: MAX
    kernel_size: 3
    stride: 2
  }
}
layer {
  name: "fc6"
  type: "InnerProduct"
  bottom: "pool5"
  top: "fc6"
  param {
    lr_mult: 1
    decay_mult: 1
  }
  param {
    lr_mult: 2
    decay_mult: 0
  }
  inner_product_param {
    num_output: 4096
    weight_filler {
      type: "gaussian"
      std: 0.005
    }
    bias_filler {
      type: "constant"
      value: 1
    }
  }
}
layer {
  name: "relu6"
  type: "ReLU"
  bottom: "fc6"
  top: "fc6"
}
layer {
  name: "drop6"
  type: "Dropout"
  bottom: "fc6"
  top: "fc6"
  dropout_param {
    dropout_ratio: 0.6
  }
}
layer {
  name: "fc7"
  type: "InnerProduct"
  bottom: "fc6"
  top: "fc7"
  param {
    lr_mult: 1
    decay_mult: 1
  }
  param {
    lr_mult: 2
    decay_mult: 0
  }
  inner_product_param {
    num_output: 4096
    weight_filler {
      type: "gaussian"
      std: 0.005
    }
    bias_filler {
      type: "constant"
      value: 1
    }
  }
}
layer {
  name: "relu7"
  type: "ReLU"
  bottom: "fc7"
  top: "fc7"
}
layer {
  name: "drop7"
  type: "Dropout"
  bottom: "fc7"
  top: "fc7"
  dropout_param {
    dropout_ratio: 0.5
  }
}
layer {
  name: "fc8"
  type: "InnerProduct"
  bottom: "fc7"
  top: "fc8"
  param {
    lr_mult: 1
    decay_mult: 1
  }
  param {
    lr_mult: 2
    decay_mult: 0
  }
  inner_product_param {
    num_output: 1000
    weight_filler {
      type: "gaussian"
      std: 0.01
    }
    bias_filler {
      type: "constant"
      value: 0
    }
  }
}
layer {
  name: "accuracy"
  type: "Accuracy"
  bottom: "fc8"
  bottom: "label"
  top: "accuracy"
  include {
    phase: TEST
  }
}
layer {
  name: "loss"
  type: "SoftmaxWithLoss"
  bottom: "fc8"
  bottom: "label"
  top: "loss"
}
I0314 18:13:08.207511 2663039808 layer_factory.hpp:77] Creating layer data
I0314 18:13:08.207689 2663039808 db_lmdb.cpp:35] Opened lmdb ../ilsvrc12_val_lmdb
I0314 18:13:08.207721 2663039808 net.cpp:84] Creating Layer data
I0314 18:13:08.207737 2663039808 net.cpp:380] data -> data
I0314 18:13:08.207752 2663039808 net.cpp:380] data -> label
I0314 18:13:08.207765 2663039808 data_transformer.cpp:25] Loading mean file from: ../imagenet_mean.binaryproto
I0314 18:13:08.209815 2663039808 data_layer.cpp:45] output data size: 4,3,224,224
I0314 18:13:08.215575 2663039808 net.cpp:122] Setting up data
I0314 18:13:08.215618 2663039808 net.cpp:129] Top shape: 4 3 224 224 (602112)
I0314 18:13:08.215724 2663039808 net.cpp:129] Top shape: 4 (4)
I0314 18:13:08.215770 2663039808 net.cpp:137] Memory required for data: 2408464
I0314 18:13:08.215793 2663039808 layer_factory.hpp:77] Creating layer label_data_1_split
I0314 18:13:08.215833 2663039808 net.cpp:84] Creating Layer label_data_1_split
I0314 18:13:08.215853 2663039808 net.cpp:406] label_data_1_split <- label
I0314 18:13:08.215883 2663039808 net.cpp:380] label_data_1_split -> label_data_1_split_0
I0314 18:13:08.215916 2663039808 net.cpp:380] label_data_1_split -> label_data_1_split_1
I0314 18:13:08.215948 2663039808 net.cpp:122] Setting up label_data_1_split
I0314 18:13:08.215965 2663039808 net.cpp:129] Top shape: 4 (4)
I0314 18:13:08.215981 2663039808 net.cpp:129] Top shape: 4 (4)
I0314 18:13:08.215991 2663039808 net.cpp:137] Memory required for data: 2408496
I0314 18:13:08.216003 2663039808 layer_factory.hpp:77] Creating layer conv1
I0314 18:13:08.216045 2663039808 net.cpp:84] Creating Layer conv1
I0314 18:13:08.216079 2663039808 net.cpp:406] conv1 <- data
I0314 18:13:08.216094 2663039808 net.cpp:380] conv1 -> conv1
I0314 18:13:08.216698 2663039808 net.cpp:122] Setting up conv1
I0314 18:13:08.216712 2663039808 net.cpp:129] Top shape: 4 96 54 54 (1119744)
I0314 18:13:08.216723 2663039808 net.cpp:137] Memory required for data: 6887472
I0314 18:13:08.216737 2663039808 layer_factory.hpp:77] Creating layer relu1
I0314 18:13:08.216747 2663039808 net.cpp:84] Creating Layer relu1
I0314 18:13:08.216754 2663039808 net.cpp:406] relu1 <- conv1
I0314 18:13:08.216763 2663039808 net.cpp:367] relu1 -> conv1 (in-place)
I0314 18:13:08.216773 2663039808 net.cpp:122] Setting up relu1
I0314 18:13:08.216778 2663039808 net.cpp:129] Top shape: 4 96 54 54 (1119744)
I0314 18:13:08.216786 2663039808 net.cpp:137] Memory required for data: 11366448
I0314 18:13:08.216794 2663039808 layer_factory.hpp:77] Creating layer pool1
I0314 18:13:08.216804 2663039808 net.cpp:84] Creating Layer pool1
I0314 18:13:08.216811 2663039808 net.cpp:406] pool1 <- conv1
I0314 18:13:08.216830 2663039808 net.cpp:380] pool1 -> pool1
I0314 18:13:08.216861 2663039808 net.cpp:122] Setting up pool1
I0314 18:13:08.216881 2663039808 net.cpp:129] Top shape: 4 96 27 27 (279936)
I0314 18:13:08.216897 2663039808 net.cpp:137] Memory required for data: 12486192
I0314 18:13:08.216910 2663039808 layer_factory.hpp:77] Creating layer norm1
I0314 18:13:08.216931 2663039808 net.cpp:84] Creating Layer norm1
I0314 18:13:08.216948 2663039808 net.cpp:406] norm1 <- pool1
I0314 18:13:08.216965 2663039808 net.cpp:380] norm1 -> norm1
I0314 18:13:08.217012 2663039808 net.cpp:122] Setting up norm1
I0314 18:13:08.217037 2663039808 net.cpp:129] Top shape: 4 96 27 27 (279936)
I0314 18:13:08.217054 2663039808 net.cpp:137] Memory required for data: 13605936
I0314 18:13:08.217068 2663039808 layer_factory.hpp:77] Creating layer conv2
I0314 18:13:08.217100 2663039808 net.cpp:84] Creating Layer conv2
I0314 18:13:08.217116 2663039808 net.cpp:406] conv2 <- norm1
I0314 18:13:08.217139 2663039808 net.cpp:380] conv2 -> conv2
I0314 18:13:08.222497 2663039808 net.cpp:122] Setting up conv2
I0314 18:13:08.222515 2663039808 net.cpp:129] Top shape: 4 256 27 27 (746496)
I0314 18:13:08.222524 2663039808 net.cpp:137] Memory required for data: 16591920
I0314 18:13:08.222535 2663039808 layer_factory.hpp:77] Creating layer relu2
I0314 18:13:08.222546 2663039808 net.cpp:84] Creating Layer relu2
I0314 18:13:08.222553 2663039808 net.cpp:406] relu2 <- conv2
I0314 18:13:08.222559 2663039808 net.cpp:367] relu2 -> conv2 (in-place)
I0314 18:13:08.222568 2663039808 net.cpp:122] Setting up relu2
I0314 18:13:08.222573 2663039808 net.cpp:129] Top shape: 4 256 27 27 (746496)
I0314 18:13:08.222580 2663039808 net.cpp:137] Memory required for data: 19577904
I0314 18:13:08.222586 2663039808 layer_factory.hpp:77] Creating layer pool2
I0314 18:13:08.222596 2663039808 net.cpp:84] Creating Layer pool2
I0314 18:13:08.222601 2663039808 net.cpp:406] pool2 <- conv2
I0314 18:13:08.222609 2663039808 net.cpp:380] pool2 -> pool2
I0314 18:13:08.222620 2663039808 net.cpp:122] Setting up pool2
I0314 18:13:08.222748 2663039808 net.cpp:129] Top shape: 4 256 13 13 (173056)
I0314 18:13:08.222761 2663039808 net.cpp:137] Memory required for data: 20270128
I0314 18:13:08.222769 2663039808 layer_factory.hpp:77] Creating layer norm2
I0314 18:13:08.222777 2663039808 net.cpp:84] Creating Layer norm2
I0314 18:13:08.222784 2663039808 net.cpp:406] norm2 <- pool2
I0314 18:13:08.222790 2663039808 net.cpp:380] norm2 -> norm2
I0314 18:13:08.222800 2663039808 net.cpp:122] Setting up norm2
I0314 18:13:08.222805 2663039808 net.cpp:129] Top shape: 4 256 13 13 (173056)
I0314 18:13:08.222812 2663039808 net.cpp:137] Memory required for data: 20962352
I0314 18:13:08.222817 2663039808 layer_factory.hpp:77] Creating layer conv3
I0314 18:13:08.222827 2663039808 net.cpp:84] Creating Layer conv3
I0314 18:13:08.222832 2663039808 net.cpp:406] conv3 <- norm2
I0314 18:13:08.222839 2663039808 net.cpp:380] conv3 -> conv3
I0314 18:13:08.234056 2663039808 net.cpp:122] Setting up conv3
I0314 18:13:08.234082 2663039808 net.cpp:129] Top shape: 4 384 13 13 (259584)
I0314 18:13:08.234088 2663039808 net.cpp:137] Memory required for data: 22000688
I0314 18:13:08.234105 2663039808 layer_factory.hpp:77] Creating layer relu3
I0314 18:13:08.234112 2663039808 net.cpp:84] Creating Layer relu3
I0314 18:13:08.234117 2663039808 net.cpp:406] relu3 <- conv3
I0314 18:13:08.234120 2663039808 net.cpp:367] relu3 -> conv3 (in-place)
I0314 18:13:08.234127 2663039808 net.cpp:122] Setting up relu3
I0314 18:13:08.234129 2663039808 net.cpp:129] Top shape: 4 384 13 13 (259584)
I0314 18:13:08.234133 2663039808 net.cpp:137] Memory required for data: 23039024
I0314 18:13:08.234136 2663039808 layer_factory.hpp:77] Creating layer conv4
I0314 18:13:08.234146 2663039808 net.cpp:84] Creating Layer conv4
I0314 18:13:08.234150 2663039808 net.cpp:406] conv4 <- conv3
I0314 18:13:08.234154 2663039808 net.cpp:380] conv4 -> conv4
I0314 18:13:08.241291 2663039808 net.cpp:122] Setting up conv4
I0314 18:13:08.241317 2663039808 net.cpp:129] Top shape: 4 384 13 13 (259584)
I0314 18:13:08.241327 2663039808 net.cpp:137] Memory required for data: 24077360
I0314 18:13:08.241335 2663039808 layer_factory.hpp:77] Creating layer relu4
I0314 18:13:08.241348 2663039808 net.cpp:84] Creating Layer relu4
I0314 18:13:08.241354 2663039808 net.cpp:406] relu4 <- conv4
I0314 18:13:08.241361 2663039808 net.cpp:367] relu4 -> conv4 (in-place)
I0314 18:13:08.241369 2663039808 net.cpp:122] Setting up relu4
I0314 18:13:08.241375 2663039808 net.cpp:129] Top shape: 4 384 13 13 (259584)
I0314 18:13:08.241382 2663039808 net.cpp:137] Memory required for data: 25115696
I0314 18:13:08.241399 2663039808 layer_factory.hpp:77] Creating layer conv5
I0314 18:13:08.241408 2663039808 net.cpp:84] Creating Layer conv5
I0314 18:13:08.241415 2663039808 net.cpp:406] conv5 <- conv4
I0314 18:13:08.241420 2663039808 net.cpp:380] conv5 -> conv5
I0314 18:13:08.246119 2663039808 net.cpp:122] Setting up conv5
I0314 18:13:08.246137 2663039808 net.cpp:129] Top shape: 4 256 13 13 (173056)
I0314 18:13:08.246145 2663039808 net.cpp:137] Memory required for data: 25807920
I0314 18:13:08.246156 2663039808 layer_factory.hpp:77] Creating layer relu5
I0314 18:13:08.246165 2663039808 net.cpp:84] Creating Layer relu5
I0314 18:13:08.246171 2663039808 net.cpp:406] relu5 <- conv5
I0314 18:13:08.246178 2663039808 net.cpp:367] relu5 -> conv5 (in-place)
I0314 18:13:08.246186 2663039808 net.cpp:122] Setting up relu5
I0314 18:13:08.246191 2663039808 net.cpp:129] Top shape: 4 256 13 13 (173056)
I0314 18:13:08.246197 2663039808 net.cpp:137] Memory required for data: 26500144
I0314 18:13:08.246203 2663039808 layer_factory.hpp:77] Creating layer pool5
I0314 18:13:08.246213 2663039808 net.cpp:84] Creating Layer pool5
I0314 18:13:08.246219 2663039808 net.cpp:406] pool5 <- conv5
I0314 18:13:08.246227 2663039808 net.cpp:380] pool5 -> pool5
I0314 18:13:08.246237 2663039808 net.cpp:122] Setting up pool5
I0314 18:13:08.246242 2663039808 net.cpp:129] Top shape: 4 256 6 6 (36864)
I0314 18:13:08.246248 2663039808 net.cpp:137] Memory required for data: 26647600
I0314 18:13:08.246253 2663039808 layer_factory.hpp:77] Creating layer fc6
I0314 18:13:08.246261 2663039808 net.cpp:84] Creating Layer fc6
I0314 18:13:08.246266 2663039808 net.cpp:406] fc6 <- pool5
I0314 18:13:08.246273 2663039808 net.cpp:380] fc6 -> fc6
I0314 18:13:08.692430 2663039808 net.cpp:122] Setting up fc6
I0314 18:13:08.692461 2663039808 net.cpp:129] Top shape: 4 4096 (16384)
I0314 18:13:08.692466 2663039808 net.cpp:137] Memory required for data: 26713136
I0314 18:13:08.692473 2663039808 layer_factory.hpp:77] Creating layer relu6
I0314 18:13:08.692482 2663039808 net.cpp:84] Creating Layer relu6
I0314 18:13:08.692487 2663039808 net.cpp:406] relu6 <- fc6
I0314 18:13:08.692492 2663039808 net.cpp:367] relu6 -> fc6 (in-place)
I0314 18:13:08.692498 2663039808 net.cpp:122] Setting up relu6
I0314 18:13:08.692502 2663039808 net.cpp:129] Top shape: 4 4096 (16384)
I0314 18:13:08.692507 2663039808 net.cpp:137] Memory required for data: 26778672
I0314 18:13:08.692509 2663039808 layer_factory.hpp:77] Creating layer drop6
I0314 18:13:08.692514 2663039808 net.cpp:84] Creating Layer drop6
I0314 18:13:08.692517 2663039808 net.cpp:406] drop6 <- fc6
I0314 18:13:08.692522 2663039808 net.cpp:367] drop6 -> fc6 (in-place)
I0314 18:13:08.692526 2663039808 net.cpp:122] Setting up drop6
I0314 18:13:08.692593 2663039808 net.cpp:129] Top shape: 4 4096 (16384)
I0314 18:13:08.692603 2663039808 net.cpp:137] Memory required for data: 26844208
I0314 18:13:08.692607 2663039808 layer_factory.hpp:77] Creating layer fc7
I0314 18:13:08.692615 2663039808 net.cpp:84] Creating Layer fc7
I0314 18:13:08.692620 2663039808 net.cpp:406] fc7 <- fc6
I0314 18:13:08.692625 2663039808 net.cpp:380] fc7 -> fc7
I0314 18:13:08.893091 2663039808 net.cpp:122] Setting up fc7
I0314 18:13:08.893123 2663039808 net.cpp:129] Top shape: 4 4096 (16384)
I0314 18:13:08.893129 2663039808 net.cpp:137] Memory required for data: 26909744
I0314 18:13:08.893137 2663039808 layer_factory.hpp:77] Creating layer relu7
I0314 18:13:08.893146 2663039808 net.cpp:84] Creating Layer relu7
I0314 18:13:08.893151 2663039808 net.cpp:406] relu7 <- fc7
I0314 18:13:08.893157 2663039808 net.cpp:367] relu7 -> fc7 (in-place)
I0314 18:13:08.893162 2663039808 net.cpp:122] Setting up relu7
I0314 18:13:08.893165 2663039808 net.cpp:129] Top shape: 4 4096 (16384)
I0314 18:13:08.893169 2663039808 net.cpp:137] Memory required for data: 26975280
I0314 18:13:08.893172 2663039808 layer_factory.hpp:77] Creating layer drop7
I0314 18:13:08.893178 2663039808 net.cpp:84] Creating Layer drop7
I0314 18:13:08.893182 2663039808 net.cpp:406] drop7 <- fc7
I0314 18:13:08.893195 2663039808 net.cpp:367] drop7 -> fc7 (in-place)
I0314 18:13:08.893201 2663039808 net.cpp:122] Setting up drop7
I0314 18:13:08.893220 2663039808 net.cpp:129] Top shape: 4 4096 (16384)
I0314 18:13:08.893225 2663039808 net.cpp:137] Memory required for data: 27040816
I0314 18:13:08.893229 2663039808 layer_factory.hpp:77] Creating layer fc8
I0314 18:13:08.893234 2663039808 net.cpp:84] Creating Layer fc8
I0314 18:13:08.893237 2663039808 net.cpp:406] fc8 <- fc7
I0314 18:13:08.893242 2663039808 net.cpp:380] fc8 -> fc8
I0314 18:13:08.940228 2663039808 net.cpp:122] Setting up fc8
I0314 18:13:08.940254 2663039808 net.cpp:129] Top shape: 4 1000 (4000)
I0314 18:13:08.940261 2663039808 net.cpp:137] Memory required for data: 27056816
I0314 18:13:08.940268 2663039808 layer_factory.hpp:77] Creating layer fc8_fc8_0_split
I0314 18:13:08.940275 2663039808 net.cpp:84] Creating Layer fc8_fc8_0_split
I0314 18:13:08.940280 2663039808 net.cpp:406] fc8_fc8_0_split <- fc8
I0314 18:13:08.940285 2663039808 net.cpp:380] fc8_fc8_0_split -> fc8_fc8_0_split_0
I0314 18:13:08.940291 2663039808 net.cpp:380] fc8_fc8_0_split -> fc8_fc8_0_split_1
I0314 18:13:08.940297 2663039808 net.cpp:122] Setting up fc8_fc8_0_split
I0314 18:13:08.940300 2663039808 net.cpp:129] Top shape: 4 1000 (4000)
I0314 18:13:08.940304 2663039808 net.cpp:129] Top shape: 4 1000 (4000)
I0314 18:13:08.940307 2663039808 net.cpp:137] Memory required for data: 27088816
I0314 18:13:08.940311 2663039808 layer_factory.hpp:77] Creating layer accuracy
I0314 18:13:08.940316 2663039808 net.cpp:84] Creating Layer accuracy
I0314 18:13:08.940381 2663039808 net.cpp:406] accuracy <- fc8_fc8_0_split_0
I0314 18:13:08.940390 2663039808 net.cpp:406] accuracy <- label_data_1_split_0
I0314 18:13:08.940397 2663039808 net.cpp:380] accuracy -> accuracy
…
