…
I0315 09:37:14.804188 2663039808 net.cpp:294] The NetState phase (0) differed from the phase (1) specified by a rule in layer accuracy
I0315 09:37:14.804194 2663039808 net.cpp:51] Initializing net from parameters: 
name: "CaffeNet"
state {
  phase: TRAIN
  level: 0
  stage: ""
}
layer {
  name: "data"
  type: "Data"
  top: "data"
  top: "label"
  include {
    phase: TRAIN
  }
  transform_param {
    mirror: true
    crop_size: 224
    mean_file: "../imagenet_mean.binaryproto"
  }
  data_param {
    source: "../ilsvrc12_train_lmdb"
    batch_size: 8
    backend: LMDB
  }
}
layer {
  name: "conv1"
  type: "Convolution"
  bottom: "data"
  top: "conv1"
  param {
    lr_mult: 1
    decay_mult: 1
  }
  param {
    lr_mult: 2
    decay_mult: 0
  }
  convolution_param {
    num_output: 96
    kernel_size: 11
    stride: 4
    weight_filler {
      type: "gaussian"
      std: 0.01
    }
    bias_filler {
      type: "constant"
      value: 0
    }
  }
}
layer {
  name: "relu1"
  type: "ReLU"
  bottom: "conv1"
  top: "conv1"
}
layer {
  name: "pool1"
  type: "Pooling"
  bottom: "conv1"
  top: "pool1"
  pooling_param {
    pool: MAX
    kernel_size: 3
    stride: 2
  }
}
layer {
  name: "norm1"
  type: "LRN"
  bottom: "pool1"
  top: "norm1"
  lrn_param {
    local_size: 5
    alpha: 0.0001
    beta: 0.75
  }
}
layer {
  name: "conv2"
  type: "Convolution"
  bottom: "norm1"
  top: "conv2"
  param {
    lr_mult: 1
    decay_mult: 1
  }
  param {
    lr_mult: 2
    decay_mult: 0
  }
  convolution_param {
    num_output: 256
    pad: 2
    kernel_size: 5
    group: 2
    weight_filler {
      type: "gaussian"
      std: 0.01
    }
    bias_filler {
      type: "constant"
      value: 1
    }
  }
}
layer {
  name: "relu2"
  type: "ReLU"
  bottom: "conv2"
  top: "conv2"
}
layer {
  name: "pool2"
  type: "Pooling"
  bottom: "conv2"
  top: "pool2"
  pooling_param {
    pool: MAX
    kernel_size: 3
    stride: 2
  }
}
layer {
  name: "norm2"
  type: "LRN"
  bottom: "pool2"
  top: "norm2"
  lrn_param {
    local_size: 5
    alpha: 0.0001
    beta: 0.75
  }
}
layer {
  name: "conv3"
  type: "Convolution"
  bottom: "norm2"
  top: "conv3"
  param {
    lr_mult: 1
    decay_mult: 1
  }
  param {
    lr_mult: 2
    decay_mult: 0
  }
  convolution_param {
    num_output: 384
    pad: 1
    kernel_size: 3
    weight_filler {
      type: "gaussian"
      std: 0.01
    }
    bias_filler {
      type: "constant"
      value: 0
    }
  }
}
layer {
  name: "relu3"
  type: "ReLU"
  bottom: "conv3"
  top: "conv3"
}
layer {
  name: "conv4"
  type: "Convolution"
  bottom: "conv3"
  top: "conv4"
  param {
    lr_mult: 1
    decay_mult: 1
  }
  param {
    lr_mult: 2
    decay_mult: 0
  }
  convolution_param {
    num_output: 384
    pad: 1
    kernel_size: 3
    group: 2
    weight_filler {
      type: "gaussian"
      std: 0.01
    }
    bias_filler {
      type: "constant"
      value: 1
    }
  }
}
layer {
  name: "relu4"
  type: "ReLU"
  bottom: "conv4"
  top: "conv4"
}
layer {
  name: "conv5"
  type: "Convolution"
  bottom: "conv4"
  top: "conv5"
  param {
    lr_mult: 1
    decay_mult: 1
  }
  param {
    lr_mult: 2
    decay_mult: 0
  }
  convolution_param {
    num_output: 256
    pad: 1
    kernel_size: 3
    group: 2
    weight_filler {
      type: "gaussian"
      std: 0.01
    }
    bias_filler {
      type: "constant"
      value: 1
    }
  }
}
layer {
  name: "relu5"
  type: "ReLU"
  bottom: "conv5"
  top: "conv5"
}
layer {
  name: "pool5"
  type: "Pooling"
  bottom: "conv5"
  top: "pool5"
  pooling_param {
    pool: MAX
    kernel_size: 3
    stride: 2
  }
}
layer {
  name: "fc6"
  type: "InnerProduct"
  bottom: "pool5"
  top: "fc6"
  param {
    lr_mult: 1
    decay_mult: 1
  }
  param {
    lr_mult: 2
    decay_mult: 0
  }
  inner_product_param {
    num_output: 4096
    weight_filler {
      type: "gaussian"
      std: 0.005
    }
    bias_filler {
      type: "constant"
      value: 1
    }
  }
}
layer {
  name: "relu6"
  type: "ReLU"
  bottom: "fc6"
  top: "fc6"
}
layer {
  name: "drop6"
  type: "Dropout"
  bottom: "fc6"
  top: "fc6"
  dropout_param {
    dropout_ratio: 0.6
  }
}
layer {
  name: "fc7"
  type: "InnerProduct"
  bottom: "fc6"
  top: "fc7"
  param {
    lr_mult: 1
    decay_mult: 1
  }
  param {
    lr_mult: 2
    decay_mult: 0
  }
  inner_product_param {
    num_output: 4096
    weight_filler {
      type: "gaussian"
      std: 0.005
    }
    bias_filler {
      type: "constant"
      value: 1
    }
  }
}
layer {
  name: "relu7"
  type: "ReLU"
  bottom: "fc7"
  top: "fc7"
}
layer {
  name: "drop7"
  type: "Dropout"
  bottom: "fc7"
  top: "fc7"
  dropout_param {
    dropout_ratio: 0.5
  }
}
layer {
  name: "fc8"
  type: "InnerProduct"
  bottom: "fc7"
  top: "fc8"
  param {
    lr_mult: 1
    decay_mult: 1
  }
  param {
    lr_mult: 2
    decay_mult: 0
  }
  inner_product_param {
    num_output: 1000
    weight_filler {
      type: "gaussian"
      std: 0.01
    }
    bias_filler {
      type: "constant"
      value: 0
    }
  }
}
layer {
  name: "loss"
  type: "SoftmaxWithLoss"
  bottom: "fc8"
  bottom: "label"
  top: "loss"
}
I0315 09:37:14.815078 2663039808 layer_factory.hpp:77] Creating layer data
I0315 09:37:14.816073 2663039808 db_lmdb.cpp:35] Opened lmdb ../ilsvrc12_train_lmdb
I0315 09:37:14.816313 2663039808 net.cpp:84] Creating Layer data
I0315 09:37:14.816357 2663039808 net.cpp:380] data -> data
I0315 09:37:14.816429 2663039808 net.cpp:380] data -> label
I0315 09:37:14.816468 2663039808 data_transformer.cpp:25] Loading mean file from: ../imagenet_mean.binaryproto
I0315 09:37:14.824268 2663039808 data_layer.cpp:45] output data size: 8,3,224,224
I0315 09:37:14.832208 2663039808 net.cpp:122] Setting up data
I0315 09:37:14.832239 2663039808 net.cpp:129] Top shape: 8 3 224 224 (1204224)
I0315 09:37:14.832248 2663039808 net.cpp:129] Top shape: 8 (8)
I0315 09:37:14.832253 2663039808 net.cpp:137] Memory required for data: 4816928
I0315 09:37:14.832262 2663039808 layer_factory.hpp:77] Creating layer conv1
I0315 09:37:14.832278 2663039808 net.cpp:84] Creating Layer conv1
I0315 09:37:14.832284 2663039808 net.cpp:406] conv1 <- data
I0315 09:37:14.832293 2663039808 net.cpp:380] conv1 -> conv1
I0315 09:37:14.832826 2663039808 net.cpp:122] Setting up conv1
I0315 09:37:14.832837 2663039808 net.cpp:129] Top shape: 8 96 54 54 (2239488)
I0315 09:37:14.832845 2663039808 net.cpp:137] Memory required for data: 13774880
I0315 09:37:14.832857 2663039808 layer_factory.hpp:77] Creating layer relu1
I0315 09:37:14.832875 2663039808 net.cpp:84] Creating Layer relu1
I0315 09:37:14.832881 2663039808 net.cpp:406] relu1 <- conv1
I0315 09:37:14.832888 2663039808 net.cpp:367] relu1 -> conv1 (in-place)
I0315 09:37:14.832896 2663039808 net.cpp:122] Setting up relu1
I0315 09:37:14.832902 2663039808 net.cpp:129] Top shape: 8 96 54 54 (2239488)
I0315 09:37:14.832909 2663039808 net.cpp:137] Memory required for data: 22732832
I0315 09:37:14.832914 2663039808 layer_factory.hpp:77] Creating layer pool1
I0315 09:37:14.832923 2663039808 net.cpp:84] Creating Layer pool1
I0315 09:37:14.832928 2663039808 net.cpp:406] pool1 <- conv1
I0315 09:37:14.832936 2663039808 net.cpp:380] pool1 -> pool1
I0315 09:37:14.832945 2663039808 net.cpp:122] Setting up pool1
I0315 09:37:14.834059 2663039808 net.cpp:129] Top shape: 8 96 27 27 (559872)
I0315 09:37:14.834075 2663039808 net.cpp:137] Memory required for data: 24972320
I0315 09:37:14.834081 2663039808 layer_factory.hpp:77] Creating layer norm1
I0315 09:37:14.834095 2663039808 net.cpp:84] Creating Layer norm1
I0315 09:37:14.834106 2663039808 net.cpp:406] norm1 <- pool1
I0315 09:37:14.834115 2663039808 net.cpp:380] norm1 -> norm1
I0315 09:37:14.834131 2663039808 net.cpp:122] Setting up norm1
I0315 09:37:14.834136 2663039808 net.cpp:129] Top shape: 8 96 27 27 (559872)
I0315 09:37:14.834282 2663039808 net.cpp:137] Memory required for data: 27211808
I0315 09:37:14.834290 2663039808 layer_factory.hpp:77] Creating layer conv2
I0315 09:37:14.834301 2663039808 net.cpp:84] Creating Layer conv2
I0315 09:37:14.834308 2663039808 net.cpp:406] conv2 <- norm1
I0315 09:37:14.834317 2663039808 net.cpp:380] conv2 -> conv2
I0315 09:37:14.838702 2663039808 net.cpp:122] Setting up conv2
I0315 09:37:14.838722 2663039808 net.cpp:129] Top shape: 8 256 27 27 (1492992)
I0315 09:37:14.838732 2663039808 net.cpp:137] Memory required for data: 33183776
I0315 09:37:14.838742 2663039808 layer_factory.hpp:77] Creating layer relu2
I0315 09:37:14.838753 2663039808 net.cpp:84] Creating Layer relu2
I0315 09:37:14.838759 2663039808 net.cpp:406] relu2 <- conv2
I0315 09:37:14.838768 2663039808 net.cpp:367] relu2 -> conv2 (in-place)
I0315 09:37:14.838778 2663039808 net.cpp:122] Setting up relu2
I0315 09:37:14.838783 2663039808 net.cpp:129] Top shape: 8 256 27 27 (1492992)
I0315 09:37:14.838789 2663039808 net.cpp:137] Memory required for data: 39155744
I0315 09:37:14.838794 2663039808 layer_factory.hpp:77] Creating layer pool2
I0315 09:37:14.838801 2663039808 net.cpp:84] Creating Layer pool2
I0315 09:37:14.838806 2663039808 net.cpp:406] pool2 <- conv2
I0315 09:37:14.838814 2663039808 net.cpp:380] pool2 -> pool2
I0315 09:37:14.838824 2663039808 net.cpp:122] Setting up pool2
I0315 09:37:14.838829 2663039808 net.cpp:129] Top shape: 8 256 13 13 (346112)
I0315 09:37:14.838835 2663039808 net.cpp:137] Memory required for data: 40540192
I0315 09:37:14.838840 2663039808 layer_factory.hpp:77] Creating layer norm2
I0315 09:37:14.838850 2663039808 net.cpp:84] Creating Layer norm2
I0315 09:37:14.838855 2663039808 net.cpp:406] norm2 <- pool2
I0315 09:37:14.838860 2663039808 net.cpp:380] norm2 -> norm2
I0315 09:37:14.838868 2663039808 net.cpp:122] Setting up norm2
I0315 09:37:14.838874 2663039808 net.cpp:129] Top shape: 8 256 13 13 (346112)
I0315 09:37:14.838881 2663039808 net.cpp:137] Memory required for data: 41924640
I0315 09:37:14.838886 2663039808 layer_factory.hpp:77] Creating layer conv3
I0315 09:37:14.838896 2663039808 net.cpp:84] Creating Layer conv3
I0315 09:37:14.838901 2663039808 net.cpp:406] conv3 <- norm2
I0315 09:37:14.838907 2663039808 net.cpp:380] conv3 -> conv3
I0315 09:37:14.852105 2663039808 net.cpp:122] Setting up conv3
I0315 09:37:14.852138 2663039808 net.cpp:129] Top shape: 8 384 13 13 (519168)
I0315 09:37:14.852146 2663039808 net.cpp:137] Memory required for data: 44001312
I0315 09:37:14.852159 2663039808 layer_factory.hpp:77] Creating layer relu3
I0315 09:37:14.852172 2663039808 net.cpp:84] Creating Layer relu3
I0315 09:37:14.852177 2663039808 net.cpp:406] relu3 <- conv3
I0315 09:37:14.852185 2663039808 net.cpp:367] relu3 -> conv3 (in-place)
I0315 09:37:14.852193 2663039808 net.cpp:122] Setting up relu3
I0315 09:37:14.852198 2663039808 net.cpp:129] Top shape: 8 384 13 13 (519168)
I0315 09:37:14.852205 2663039808 net.cpp:137] Memory required for data: 46077984
I0315 09:37:14.852208 2663039808 layer_factory.hpp:77] Creating layer conv4
I0315 09:37:14.852221 2663039808 net.cpp:84] Creating Layer conv4
I0315 09:37:14.852226 2663039808 net.cpp:406] conv4 <- conv3
I0315 09:37:14.852233 2663039808 net.cpp:380] conv4 -> conv4
I0315 09:37:14.859503 2663039808 net.cpp:122] Setting up conv4
I0315 09:37:14.859542 2663039808 net.cpp:129] Top shape: 8 384 13 13 (519168)
I0315 09:37:14.859549 2663039808 net.cpp:137] Memory required for data: 48154656
I0315 09:37:14.859558 2663039808 layer_factory.hpp:77] Creating layer relu4
I0315 09:37:14.859568 2663039808 net.cpp:84] Creating Layer relu4
I0315 09:37:14.859572 2663039808 net.cpp:406] relu4 <- conv4
I0315 09:37:14.859578 2663039808 net.cpp:367] relu4 -> conv4 (in-place)
I0315 09:37:14.859599 2663039808 net.cpp:122] Setting up relu4
I0315 09:37:14.859603 2663039808 net.cpp:129] Top shape: 8 384 13 13 (519168)
I0315 09:37:14.859607 2663039808 net.cpp:137] Memory required for data: 50231328
I0315 09:37:14.859611 2663039808 layer_factory.hpp:77] Creating layer conv5
I0315 09:37:14.859621 2663039808 net.cpp:84] Creating Layer conv5
I0315 09:37:14.859623 2663039808 net.cpp:406] conv5 <- conv4
I0315 09:37:14.859629 2663039808 net.cpp:380] conv5 -> conv5
I0315 09:37:14.864574 2663039808 net.cpp:122] Setting up conv5
I0315 09:37:14.864596 2663039808 net.cpp:129] Top shape: 8 256 13 13 (346112)
I0315 09:37:14.864605 2663039808 net.cpp:137] Memory required for data: 51615776
I0315 09:37:14.864616 2663039808 layer_factory.hpp:77] Creating layer relu5
I0315 09:37:14.864627 2663039808 net.cpp:84] Creating Layer relu5
I0315 09:37:14.864660 2663039808 net.cpp:406] relu5 <- conv5
I0315 09:37:14.864670 2663039808 net.cpp:367] relu5 -> conv5 (in-place)
I0315 09:37:14.864677 2663039808 net.cpp:122] Setting up relu5
I0315 09:37:14.864681 2663039808 net.cpp:129] Top shape: 8 256 13 13 (346112)
I0315 09:37:14.864686 2663039808 net.cpp:137] Memory required for data: 53000224
I0315 09:37:14.864689 2663039808 layer_factory.hpp:77] Creating layer pool5
I0315 09:37:14.864696 2663039808 net.cpp:84] Creating Layer pool5
I0315 09:37:14.864698 2663039808 net.cpp:406] pool5 <- conv5
I0315 09:37:14.864702 2663039808 net.cpp:380] pool5 -> pool5
I0315 09:37:14.864709 2663039808 net.cpp:122] Setting up pool5
I0315 09:37:14.864712 2663039808 net.cpp:129] Top shape: 8 256 6 6 (73728)
I0315 09:37:14.864717 2663039808 net.cpp:137] Memory required for data: 53295136
I0315 09:37:14.864720 2663039808 layer_factory.hpp:77] Creating layer fc6
I0315 09:37:14.864727 2663039808 net.cpp:84] Creating Layer fc6
I0315 09:37:14.864730 2663039808 net.cpp:406] fc6 <- pool5
I0315 09:37:14.864735 2663039808 net.cpp:380] fc6 -> fc6
I0315 09:37:15.297797 2663039808 net.cpp:122] Setting up fc6
I0315 09:37:15.297830 2663039808 net.cpp:129] Top shape: 8 4096 (32768)
I0315 09:37:15.297839 2663039808 net.cpp:137] Memory required for data: 53426208
I0315 09:37:15.297849 2663039808 layer_factory.hpp:77] Creating layer relu6
I0315 09:37:15.297860 2663039808 net.cpp:84] Creating Layer relu6
I0315 09:37:15.297866 2663039808 net.cpp:406] relu6 <- fc6
I0315 09:37:15.297874 2663039808 net.cpp:367] relu6 -> fc6 (in-place)
I0315 09:37:15.297883 2663039808 net.cpp:122] Setting up relu6
I0315 09:37:15.297888 2663039808 net.cpp:129] Top shape: 8 4096 (32768)
I0315 09:37:15.297894 2663039808 net.cpp:137] Memory required for data: 53557280
I0315 09:37:15.297897 2663039808 layer_factory.hpp:77] Creating layer drop6
I0315 09:37:15.297905 2663039808 net.cpp:84] Creating Layer drop6
I0315 09:37:15.297910 2663039808 net.cpp:406] drop6 <- fc6
I0315 09:37:15.297915 2663039808 net.cpp:367] drop6 -> fc6 (in-place)
I0315 09:37:15.297929 2663039808 net.cpp:122] Setting up drop6
I0315 09:37:15.297932 2663039808 net.cpp:129] Top shape: 8 4096 (32768)
I0315 09:37:15.297938 2663039808 net.cpp:137] Memory required for data: 53688352
I0315 09:37:15.297942 2663039808 layer_factory.hpp:77] Creating layer fc7
I0315 09:37:15.297950 2663039808 net.cpp:84] Creating Layer fc7
I0315 09:37:15.297955 2663039808 net.cpp:406] fc7 <- fc6
I0315 09:37:15.297962 2663039808 net.cpp:380] fc7 -> fc7
I0315 09:37:15.500564 2663039808 net.cpp:122] Setting up fc7
I0315 09:37:15.500599 2663039808 net.cpp:129] Top shape: 8 4096 (32768)
I0315 09:37:15.500607 2663039808 net.cpp:137] Memory required for data: 53819424
I0315 09:37:15.500614 2663039808 layer_factory.hpp:77] Creating layer relu7
I0315 09:37:15.500624 2663039808 net.cpp:84] Creating Layer relu7
I0315 09:37:15.500628 2663039808 net.cpp:406] relu7 <- fc7
I0315 09:37:15.500635 2663039808 net.cpp:367] relu7 -> fc7 (in-place)
I0315 09:37:15.500643 2663039808 net.cpp:122] Setting up relu7
I0315 09:37:15.500645 2663039808 net.cpp:129] Top shape: 8 4096 (32768)
I0315 09:37:15.500650 2663039808 net.cpp:137] Memory required for data: 53950496
I0315 09:37:15.500654 2663039808 layer_factory.hpp:77] Creating layer drop7
I0315 09:37:15.500664 2663039808 net.cpp:84] Creating Layer drop7
I0315 09:37:15.500669 2663039808 net.cpp:406] drop7 <- fc7
I0315 09:37:15.500672 2663039808 net.cpp:367] drop7 -> fc7 (in-place)
I0315 09:37:15.500679 2663039808 net.cpp:122] Setting up drop7
I0315 09:37:15.500684 2663039808 net.cpp:129] Top shape: 8 4096 (32768)
I0315 09:37:15.500689 2663039808 net.cpp:137] Memory required for data: 54081568
I0315 09:37:15.500692 2663039808 layer_factory.hpp:77] Creating layer fc8
I0315 09:37:15.500704 2663039808 net.cpp:84] Creating Layer fc8
I0315 09:37:15.500707 2663039808 net.cpp:406] fc8 <- fc7
I0315 09:37:15.500713 2663039808 net.cpp:380] fc8 -> fc8
I0315 09:37:15.548627 2663039808 net.cpp:122] Setting up fc8
I0315 09:37:15.548653 2663039808 net.cpp:129] Top shape: 8 1000 (8000)
I0315 09:37:15.548661 2663039808 net.cpp:137] Memory required for data: 54113568
I0315 09:37:15.548669 2663039808 layer_factory.hpp:77] Creating layer loss
I0315 09:37:15.548686 2663039808 net.cpp:84] Creating Layer loss
I0315 09:37:15.548692 2663039808 net.cpp:406] loss <- fc8
I0315 09:37:15.548698 2663039808 net.cpp:406] loss <- label
I0315 09:37:15.548704 2663039808 net.cpp:380] loss -> loss
…
I0315 09:37:15.549381 2663039808 solver.cpp:190] Creating test net (#0) specified by net file: models/bvlc_reference_caffenet/train_val.prototxt
I0315 09:37:15.549422 2663039808 net.cpp:294] The NetState phase (1) differed from the phase (0) specified by a rule in layer data
I0315 09:37:15.549443 2663039808 net.cpp:51] Initializing net from parameters: 
name: "CaffeNet"
state {
  phase: TEST
}
layer {
  name: "data"
  type: "Data"
  top: "data"
  top: "label"
  include {
    phase: TEST
  }
  transform_param {
    mirror: false
    crop_size: 224
    mean_file: "../imagenet_mean.binaryproto"
  }
  data_param {
    source: "../ilsvrc12_val_lmdb"
    batch_size: 4
    backend: LMDB
  }
}
layer {
  name: "conv1"
  type: "Convolution"
  bottom: "data"
  top: "conv1"
  param {
    lr_mult: 1
    decay_mult: 1
  }
  param {
    lr_mult: 2
    decay_mult: 0
  }
  convolution_param {
    num_output: 96
    kernel_size: 11
    stride: 4
    weight_filler {
      type: "gaussian"
      std: 0.01
    }
    bias_filler {
      type: "constant"
      value: 0
    }
  }
}
layer {
  name: "relu1"
  type: "ReLU"
  bottom: "conv1"
  top: "conv1"
}
layer {
  name: "pool1"
  type: "Pooling"
  bottom: "conv1"
  top: "pool1"
  pooling_param {
    pool: MAX
    kernel_size: 3
    stride: 2
  }
}
layer {
  name: "norm1"
  type: "LRN"
  bottom: "pool1"
  top: "norm1"
  lrn_param {
    local_size: 5
    alpha: 0.0001
    beta: 0.75
  }
}
layer {
  name: "conv2"
  type: "Convolution"
  bottom: "norm1"
  top: "conv2"
  param {
    lr_mult: 1
    decay_mult: 1
  }
  param {
    lr_mult: 2
    decay_mult: 0
  }
  convolution_param {
    num_output: 256
    pad: 2
    kernel_size: 5
    group: 2
    weight_filler {
      type: "gaussian"
      std: 0.01
    }
    bias_filler {
      type: "constant"
      value: 1
    }
  }
}
layer {
  name: "relu2"
  type: "ReLU"
  bottom: "conv2"
  top: "conv2"
}
layer {
  name: "pool2"
  type: "Pooling"
  bottom: "conv2"
  top: "pool2"
  pooling_param {
    pool: MAX
    kernel_size: 3
    stride: 2
  }
}
layer {
  name: "norm2"
  type: "LRN"
  bottom: "pool2"
  top: "norm2"
  lrn_param {
    local_size: 5
    alpha: 0.0001
    beta: 0.75
  }
}
layer {
  name: "conv3"
  type: "Convolution"
  bottom: "norm2"
  top: "conv3"
  param {
    lr_mult: 1
    decay_mult: 1
  }
  param {
    lr_mult: 2
    decay_mult: 0
  }
  convolution_param {
    num_output: 384
    pad: 1
    kernel_size: 3
    weight_filler {
      type: "gaussian"
      std: 0.01
    }
    bias_filler {
      type: "constant"
      value: 0
    }
  }
}
layer {
  name: "relu3"
  type: "ReLU"
  bottom: "conv3"
  top: "conv3"
}
layer {
  name: "conv4"
  type: "Convolution"
  bottom: "conv3"
  top: "conv4"
  param {
    lr_mult: 1
    decay_mult: 1
  }
  param {
    lr_mult: 2
    decay_mult: 0
  }
  convolution_param {
    num_output: 384
    pad: 1
    kernel_size: 3
    group: 2
    weight_filler {
      type: "gaussian"
      std: 0.01
    }
    bias_filler {
      type: "constant"
      value: 1
    }
  }
}
layer {
  name: "relu4"
  type: "ReLU"
  bottom: "conv4"
  top: "conv4"
}
layer {
  name: "conv5"
  type: "Convolution"
  bottom: "conv4"
  top: "conv5"
  param {
    lr_mult: 1
    decay_mult: 1
  }
  param {
    lr_mult: 2
    decay_mult: 0
  }
  convolution_param {
    num_output: 256
    pad: 1
    kernel_size: 3
    group: 2
    weight_filler {
      type: "gaussian"
      std: 0.01
    }
    bias_filler {
      type: "constant"
      value: 1
    }
  }
}
layer {
  name: "relu5"
  type: "ReLU"
  bottom: "conv5"
  top: "conv5"
}
layer {
  name: "pool5"
  type: "Pooling"
  bottom: "conv5"
  top: "pool5"
  pooling_param {
    pool: MAX
    kernel_size: 3
    stride: 2
  }
}
layer {
  name: "fc6"
  type: "InnerProduct"
  bottom: "pool5"
  top: "fc6"
  param {
    lr_mult: 1
    decay_mult: 1
  }
  param {
    lr_mult: 2
    decay_mult: 0
  }
  inner_product_param {
    num_output: 4096
    weight_filler {
      type: "gaussian"
      std: 0.005
    }
    bias_filler {
      type: "constant"
      value: 1
    }
  }
}
layer {
  name: "relu6"
  type: "ReLU"
  bottom: "fc6"
  top: "fc6"
}
layer {
  name: "drop6"
  type: "Dropout"
  bottom: "fc6"
  top: "fc6"
  dropout_param {
    dropout_ratio: 0.6
  }
}
layer {
  name: "fc7"
  type: "InnerProduct"
  bottom: "fc6"
  top: "fc7"
  param {
    lr_mult: 1
    decay_mult: 1
  }
  param {
    lr_mult: 2
    decay_mult: 0
  }
  inner_product_param {
    num_output: 4096
    weight_filler {
      type: "gaussian"
      std: 0.005
    }
    bias_filler {
      type: "constant"
      value: 1
    }
  }
}
layer {
  name: "relu7"
  type: "ReLU"
  bottom: "fc7"
  top: "fc7"
}
layer {
  name: "drop7"
  type: "Dropout"
  bottom: "fc7"
  top: "fc7"
  dropout_param {
    dropout_ratio: 0.5
  }
}
layer {
  name: "fc8"
  type: "InnerProduct"
  bottom: "fc7"
  top: "fc8"
  param {
    lr_mult: 1
    decay_mult: 1
  }
  param {
    lr_mult: 2
    decay_mult: 0
  }
  inner_product_param {
    num_output: 1000
    weight_filler {
      type: "gaussian"
      std: 0.01
    }
    bias_filler {
      type: "constant"
      value: 0
    }
  }
}
layer {
  name: "accuracy"
  type: "Accuracy"
  bottom: "fc8"
  bottom: "label"
  top: "accuracy"
  include {
    phase: TEST
  }
}
layer {
  name: "loss"
  type: "SoftmaxWithLoss"
  bottom: "fc8"
  bottom: "label"
  top: "loss"
}
I0315 09:37:15.554671 2663039808 layer_factory.hpp:77] Creating layer data
I0315 09:37:15.554919 2663039808 db_lmdb.cpp:35] Opened lmdb ../ilsvrc12_val_lmdb
I0315 09:37:15.554955 2663039808 net.cpp:84] Creating Layer data
I0315 09:37:15.554972 2663039808 net.cpp:380] data -> data
I0315 09:37:15.554988 2663039808 net.cpp:380] data -> label
I0315 09:37:15.555002 2663039808 data_transformer.cpp:25] Loading mean file from: ../imagenet_mean.binaryproto
I0315 09:37:15.556769 2663039808 data_layer.cpp:45] output data size: 4,3,224,224
I0315 09:37:15.569280 2663039808 net.cpp:122] Setting up data
I0315 09:37:15.573081 2663039808 net.cpp:129] Top shape: 4 3 224 224 (602112)
I0315 09:37:15.573104 2663039808 net.cpp:129] Top shape: 4 (4)
I0315 09:37:15.573112 2663039808 net.cpp:137] Memory required for data: 2408464
I0315 09:37:15.573120 2663039808 layer_factory.hpp:77] Creating layer label_data_1_split
I0315 09:37:15.573132 2663039808 net.cpp:84] Creating Layer label_data_1_split
I0315 09:37:15.573138 2663039808 net.cpp:406] label_data_1_split <- label
I0315 09:37:15.573146 2663039808 net.cpp:380] label_data_1_split -> label_data_1_split_0
I0315 09:37:15.573156 2663039808 net.cpp:380] label_data_1_split -> label_data_1_split_1
I0315 09:37:15.573165 2663039808 net.cpp:122] Setting up label_data_1_split
I0315 09:37:15.573170 2663039808 net.cpp:129] Top shape: 4 (4)
I0315 09:37:15.573175 2663039808 net.cpp:129] Top shape: 4 (4)
I0315 09:37:15.573180 2663039808 net.cpp:137] Memory required for data: 2408496
I0315 09:37:15.573185 2663039808 layer_factory.hpp:77] Creating layer conv1
I0315 09:37:15.573195 2663039808 net.cpp:84] Creating Layer conv1
I0315 09:37:15.573200 2663039808 net.cpp:406] conv1 <- data
I0315 09:37:15.573207 2663039808 net.cpp:380] conv1 -> conv1
I0315 09:37:15.574254 2663039808 net.cpp:122] Setting up conv1
I0315 09:37:15.574272 2663039808 net.cpp:129] Top shape: 4 96 54 54 (1119744)
I0315 09:37:15.574281 2663039808 net.cpp:137] Memory required for data: 6887472
I0315 09:37:15.574293 2663039808 layer_factory.hpp:77] Creating layer relu1
I0315 09:37:15.574304 2663039808 net.cpp:84] Creating Layer relu1
I0315 09:37:15.574311 2663039808 net.cpp:406] relu1 <- conv1
I0315 09:37:15.574318 2663039808 net.cpp:367] relu1 -> conv1 (in-place)
I0315 09:37:15.574326 2663039808 net.cpp:122] Setting up relu1
I0315 09:37:15.574331 2663039808 net.cpp:129] Top shape: 4 96 54 54 (1119744)
I0315 09:37:15.574339 2663039808 net.cpp:137] Memory required for data: 11366448
I0315 09:37:15.574344 2663039808 layer_factory.hpp:77] Creating layer pool1
I0315 09:37:15.574353 2663039808 net.cpp:84] Creating Layer pool1
I0315 09:37:15.574359 2663039808 net.cpp:406] pool1 <- conv1
I0315 09:37:15.574365 2663039808 net.cpp:380] pool1 -> pool1
I0315 09:37:15.574375 2663039808 net.cpp:122] Setting up pool1
I0315 09:37:15.575299 2663039808 net.cpp:129] Top shape: 4 96 27 27 (279936)
I0315 09:37:15.575320 2663039808 net.cpp:137] Memory required for data: 12486192
I0315 09:37:15.575331 2663039808 layer_factory.hpp:77] Creating layer norm1
I0315 09:37:15.575340 2663039808 net.cpp:84] Creating Layer norm1
I0315 09:37:15.575345 2663039808 net.cpp:406] norm1 <- pool1
I0315 09:37:15.575352 2663039808 net.cpp:380] norm1 -> norm1
I0315 09:37:15.575366 2663039808 net.cpp:122] Setting up norm1
I0315 09:37:15.575372 2663039808 net.cpp:129] Top shape: 4 96 27 27 (279936)
I0315 09:37:15.575378 2663039808 net.cpp:137] Memory required for data: 13605936
I0315 09:37:15.575383 2663039808 layer_factory.hpp:77] Creating layer conv2
I0315 09:37:15.575394 2663039808 net.cpp:84] Creating Layer conv2
I0315 09:37:15.575400 2663039808 net.cpp:406] conv2 <- norm1
I0315 09:37:15.575407 2663039808 net.cpp:380] conv2 -> conv2
I0315 09:37:15.580359 2663039808 net.cpp:122] Setting up conv2
I0315 09:37:15.580387 2663039808 net.cpp:129] Top shape: 4 256 27 27 (746496)
I0315 09:37:15.580399 2663039808 net.cpp:137] Memory required for data: 16591920
I0315 09:37:15.580410 2663039808 layer_factory.hpp:77] Creating layer relu2
I0315 09:37:15.580420 2663039808 net.cpp:84] Creating Layer relu2
I0315 09:37:15.580425 2663039808 net.cpp:406] relu2 <- conv2
I0315 09:37:15.580432 2663039808 net.cpp:367] relu2 -> conv2 (in-place)
I0315 09:37:15.580440 2663039808 net.cpp:122] Setting up relu2
I0315 09:37:15.580446 2663039808 net.cpp:129] Top shape: 4 256 27 27 (746496)
I0315 09:37:15.580452 2663039808 net.cpp:137] Memory required for data: 19577904
I0315 09:37:15.580457 2663039808 layer_factory.hpp:77] Creating layer pool2
I0315 09:37:15.580467 2663039808 net.cpp:84] Creating Layer pool2
I0315 09:37:15.580472 2663039808 net.cpp:406] pool2 <- conv2
I0315 09:37:15.580478 2663039808 net.cpp:380] pool2 -> pool2
I0315 09:37:15.580489 2663039808 net.cpp:122] Setting up pool2
I0315 09:37:15.580494 2663039808 net.cpp:129] Top shape: 4 256 13 13 (173056)
I0315 09:37:15.580502 2663039808 net.cpp:137] Memory required for data: 20270128
I0315 09:37:15.580507 2663039808 layer_factory.hpp:77] Creating layer norm2
I0315 09:37:15.580514 2663039808 net.cpp:84] Creating Layer norm2
I0315 09:37:15.580519 2663039808 net.cpp:406] norm2 <- pool2
I0315 09:37:15.580526 2663039808 net.cpp:380] norm2 -> norm2
I0315 09:37:15.580534 2663039808 net.cpp:122] Setting up norm2
I0315 09:37:15.580539 2663039808 net.cpp:129] Top shape: 4 256 13 13 (173056)
I0315 09:37:15.580546 2663039808 net.cpp:137] Memory required for data: 20962352
I0315 09:37:15.580551 2663039808 layer_factory.hpp:77] Creating layer conv3
I0315 09:37:15.580770 2663039808 net.cpp:84] Creating Layer conv3
I0315 09:37:15.580775 2663039808 net.cpp:406] conv3 <- norm2
I0315 09:37:15.580782 2663039808 net.cpp:380] conv3 -> conv3
I0315 09:37:15.594008 2663039808 net.cpp:122] Setting up conv3
I0315 09:37:15.594032 2663039808 net.cpp:129] Top shape: 4 384 13 13 (259584)
I0315 09:37:15.594040 2663039808 net.cpp:137] Memory required for data: 22000688
I0315 09:37:15.594053 2663039808 layer_factory.hpp:77] Creating layer relu3
I0315 09:37:15.594064 2663039808 net.cpp:84] Creating Layer relu3
I0315 09:37:15.594070 2663039808 net.cpp:406] relu3 <- conv3
I0315 09:37:15.594076 2663039808 net.cpp:367] relu3 -> conv3 (in-place)
I0315 09:37:15.594085 2663039808 net.cpp:122] Setting up relu3
I0315 09:37:15.594090 2663039808 net.cpp:129] Top shape: 4 384 13 13 (259584)
I0315 09:37:15.594097 2663039808 net.cpp:137] Memory required for data: 23039024
I0315 09:37:15.594102 2663039808 layer_factory.hpp:77] Creating layer conv4
I0315 09:37:15.594125 2663039808 net.cpp:84] Creating Layer conv4
I0315 09:37:15.594130 2663039808 net.cpp:406] conv4 <- conv3
I0315 09:37:15.594137 2663039808 net.cpp:380] conv4 -> conv4
I0315 09:37:15.601066 2663039808 net.cpp:122] Setting up conv4
I0315 09:37:15.601083 2663039808 net.cpp:129] Top shape: 4 384 13 13 (259584)
I0315 09:37:15.601090 2663039808 net.cpp:137] Memory required for data: 24077360
I0315 09:37:15.601099 2663039808 layer_factory.hpp:77] Creating layer relu4
I0315 09:37:15.601109 2663039808 net.cpp:84] Creating Layer relu4
I0315 09:37:15.601114 2663039808 net.cpp:406] relu4 <- conv4
I0315 09:37:15.601121 2663039808 net.cpp:367] relu4 -> conv4 (in-place)
I0315 09:37:15.601130 2663039808 net.cpp:122] Setting up relu4
I0315 09:37:15.601135 2663039808 net.cpp:129] Top shape: 4 384 13 13 (259584)
I0315 09:37:15.601142 2663039808 net.cpp:137] Memory required for data: 25115696
I0315 09:37:15.601152 2663039808 layer_factory.hpp:77] Creating layer conv5
I0315 09:37:15.601162 2663039808 net.cpp:84] Creating Layer conv5
I0315 09:37:15.601168 2663039808 net.cpp:406] conv5 <- conv4
I0315 09:37:15.601176 2663039808 net.cpp:380] conv5 -> conv5
I0315 09:37:15.609077 2663039808 net.cpp:122] Setting up conv5
I0315 09:37:15.609099 2663039808 net.cpp:129] Top shape: 4 256 13 13 (173056)
I0315 09:37:15.609107 2663039808 net.cpp:137] Memory required for data: 25807920
I0315 09:37:15.609119 2663039808 layer_factory.hpp:77] Creating layer relu5
I0315 09:37:15.609129 2663039808 net.cpp:84] Creating Layer relu5
I0315 09:37:15.609135 2663039808 net.cpp:406] relu5 <- conv5
I0315 09:37:15.609141 2663039808 net.cpp:367] relu5 -> conv5 (in-place)
I0315 09:37:15.609150 2663039808 net.cpp:122] Setting up relu5
I0315 09:37:15.609155 2663039808 net.cpp:129] Top shape: 4 256 13 13 (173056)
I0315 09:37:15.609163 2663039808 net.cpp:137] Memory required for data: 26500144
I0315 09:37:15.609167 2663039808 layer_factory.hpp:77] Creating layer pool5
I0315 09:37:15.609175 2663039808 net.cpp:84] Creating Layer pool5
I0315 09:37:15.609180 2663039808 net.cpp:406] pool5 <- conv5
I0315 09:37:15.609187 2663039808 net.cpp:380] pool5 -> pool5
I0315 09:37:15.609199 2663039808 net.cpp:122] Setting up pool5
I0315 09:37:15.609203 2663039808 net.cpp:129] Top shape: 4 256 6 6 (36864)
I0315 09:37:15.609210 2663039808 net.cpp:137] Memory required for data: 26647600
I0315 09:37:15.609216 2663039808 layer_factory.hpp:77] Creating layer fc6
I0315 09:37:15.609225 2663039808 net.cpp:84] Creating Layer fc6
I0315 09:37:15.609230 2663039808 net.cpp:406] fc6 <- pool5
I0315 09:37:15.609236 2663039808 net.cpp:380] fc6 -> fc6
I0315 09:37:16.153700 2663039808 net.cpp:122] Setting up fc6
I0315 09:37:16.153733 2663039808 net.cpp:129] Top shape: 4 4096 (16384)
I0315 09:37:16.153741 2663039808 net.cpp:137] Memory required for data: 26713136
I0315 09:37:16.153750 2663039808 layer_factory.hpp:77] Creating layer relu6
I0315 09:37:16.153762 2663039808 net.cpp:84] Creating Layer relu6
I0315 09:37:16.153769 2663039808 net.cpp:406] relu6 <- fc6
I0315 09:37:16.153775 2663039808 net.cpp:367] relu6 -> fc6 (in-place)
I0315 09:37:16.153784 2663039808 net.cpp:122] Setting up relu6
I0315 09:37:16.153787 2663039808 net.cpp:129] Top shape: 4 4096 (16384)
I0315 09:37:16.153792 2663039808 net.cpp:137] Memory required for data: 26778672
I0315 09:37:16.153798 2663039808 layer_factory.hpp:77] Creating layer drop6
I0315 09:37:16.153805 2663039808 net.cpp:84] Creating Layer drop6
I0315 09:37:16.153810 2663039808 net.cpp:406] drop6 <- fc6
I0315 09:37:16.153816 2663039808 net.cpp:367] drop6 -> fc6 (in-place)
I0315 09:37:16.153825 2663039808 net.cpp:122] Setting up drop6
I0315 09:37:16.153829 2663039808 net.cpp:129] Top shape: 4 4096 (16384)
I0315 09:37:16.153836 2663039808 net.cpp:137] Memory required for data: 26844208
I0315 09:37:16.153839 2663039808 layer_factory.hpp:77] Creating layer fc7
I0315 09:37:16.153848 2663039808 net.cpp:84] Creating Layer fc7
I0315 09:37:16.153854 2663039808 net.cpp:406] fc7 <- fc6
I0315 09:37:16.153861 2663039808 net.cpp:380] fc7 -> fc7
I0315 09:37:16.405161 2663039808 net.cpp:122] Setting up fc7
I0315 09:37:16.405194 2663039808 net.cpp:129] Top shape: 4 4096 (16384)
I0315 09:37:16.405205 2663039808 net.cpp:137] Memory required for data: 26909744
I0315 09:37:16.405230 2663039808 layer_factory.hpp:77] Creating layer relu7
I0315 09:37:16.405241 2663039808 net.cpp:84] Creating Layer relu7
I0315 09:37:16.405247 2663039808 net.cpp:406] relu7 <- fc7
I0315 09:37:16.405254 2663039808 net.cpp:367] relu7 -> fc7 (in-place)
I0315 09:37:16.405264 2663039808 net.cpp:122] Setting up relu7
I0315 09:37:16.405270 2663039808 net.cpp:129] Top shape: 4 4096 (16384)
I0315 09:37:16.405277 2663039808 net.cpp:137] Memory required for data: 26975280
I0315 09:37:16.405282 2663039808 layer_factory.hpp:77] Creating layer drop7
I0315 09:37:16.405290 2663039808 net.cpp:84] Creating Layer drop7
I0315 09:37:16.405297 2663039808 net.cpp:406] drop7 <- fc7
I0315 09:37:16.405310 2663039808 net.cpp:367] drop7 -> fc7 (in-place)
I0315 09:37:16.405320 2663039808 net.cpp:122] Setting up drop7
I0315 09:37:16.405325 2663039808 net.cpp:129] Top shape: 4 4096 (16384)
I0315 09:37:16.405331 2663039808 net.cpp:137] Memory required for data: 27040816
I0315 09:37:16.405338 2663039808 layer_factory.hpp:77] Creating layer fc8
I0315 09:37:16.405345 2663039808 net.cpp:84] Creating Layer fc8
I0315 09:37:16.405352 2663039808 net.cpp:406] fc8 <- fc7
I0315 09:37:16.405361 2663039808 net.cpp:380] fc8 -> fc8
I0315 09:37:16.478801 2663039808 net.cpp:122] Setting up fc8
I0315 09:37:16.479311 2663039808 net.cpp:129] Top shape: 4 1000 (4000)
I0315 09:37:16.479358 2663039808 net.cpp:137] Memory required for data: 27056816
I0315 09:37:16.479378 2663039808 layer_factory.hpp:77] Creating layer fc8_fc8_0_split
I0315 09:37:16.479391 2663039808 net.cpp:84] Creating Layer fc8_fc8_0_split
I0315 09:37:16.479399 2663039808 net.cpp:406] fc8_fc8_0_split <- fc8
I0315 09:37:16.479408 2663039808 net.cpp:380] fc8_fc8_0_split -> fc8_fc8_0_split_0
I0315 09:37:16.479418 2663039808 net.cpp:380] fc8_fc8_0_split -> fc8_fc8_0_split_1
I0315 09:37:16.479429 2663039808 net.cpp:122] Setting up fc8_fc8_0_split
I0315 09:37:16.479434 2663039808 net.cpp:129] Top shape: 4 1000 (4000)
I0315 09:37:16.479440 2663039808 net.cpp:129] Top shape: 4 1000 (4000)
I0315 09:37:16.479446 2663039808 net.cpp:137] Memory required for data: 27088816
I0315 09:37:16.479451 2663039808 layer_factory.hpp:77] Creating layer accuracy
I0315 09:37:16.479612 2663039808 net.cpp:84] Creating Layer accuracy
I0315 09:37:16.479621 2663039808 net.cpp:406] accuracy <- fc8_fc8_0_split_0
I0315 09:37:16.479627 2663039808 net.cpp:406] accuracy <- label_data_1_split_0
I0315 09:37:16.479635 2663039808 net.cpp:380] accuracy -> accuracy
…
